model_project/result/cnn_IMU_JOINT_epoch4.pt (torch, 209471 bytes, 6 tensors)

net.0.weight f4 [64, 32, 5]
00000000: 4793 0a3d 73e2 b83c a505 b8bc eccc 833d
00000010: cf71 1fbb 1c66 95bd d717 86bd e9da 9b3d
00000020: 70cc 0ebd 2c6a f3bc ca78 113d 3895 273d
00000030: 790d 6bbd 0809 06bd 0d70 e03c e70f 883d
00000040: 33b5 bd3d ca2b ac39 d5c0 623d 4380 0fbc
00000050: f5c1 763d bcdc 1fbd ca11 6fbd 4581 903c
00000060: 0f6f 51bd b8c5 3cbd d36c 933d 9977 cfbc
00000070: 0c14 3d3d 209c 88bd 0c70 3b3d 5a59 9fbd
00000080: 1dbd b03c 26cd 303d 8725 283d 1413 0f3d
00000090: 8b40 403c f315 783d 6664 fcbc 0844 77bd
000000a0: 6f86 3fbd 606c b6bd d903 e8bc 1d3b 60bd
000000b0: 1971 92bd 7b92 693d 94ec 993d 3dde d2bc
000000c0: 53c5 fcbc d5fb 1bbd 8204 71bd b4e7 483d
000000d0: cbc6 a73d ea62 f8bc dd38 8f3d 0a22 86bc
000000e0: 94ae 41bd 0270 c3bc f583 623d 94b2 b63c
000000f0: a1d0 5fbd e170 19bc 4564 ec3c 1fb0 723d
00000100: 2a04 563c aa45 803d 952d 5c3c f27f e03c
00000110: 42f9 09bd e409 1e3d 4024 553d 6f8e ca3b
00000120: c684 f9bc 7b66 593d 31cd 623c 92e8 833d
00000130: d195 ca3d c7b9 a63d 1219 443c d5f0 c03c
00000140: 80ee ca3a aeb9 aebc 8510 b23d 1d44 453d
00000150: d7b1 603d f2d2 2fbd 121a 2b3c ed0c 1f3d
00000160: 52a0 42bd fdfa 153c 5eaa bfbb 1d5c 5a3c
00000170: 7b3e 98bd 7c2a cb3b d26c d7bc 6595 763d
00000180: 6bc9 4f3b d49c 88ba 5c50 4ebb 28f6 bd3c
00000190: cd76 153d 51fa 8d3c 8e29 a8bb 1a21 843c
000001a0: 870f 01bd 19d8 513d eab4 7cbd a78f 343d
000001b0: 35a4 513b 8d27 11bd a862 1c3a bd4b 9b3d
000001c0: d496 e7bc eba5 d9bb ef3e 7bbc a51c cc3c
000001d0: a693 b5bd 9dc9 8dbd 3216 213d 7741 063c
000001e0: d7b3 6c3d db42 45bb 61d3 d23c f600 4abd
000001f0: 4c36 d13c 8628 9f3d 4256 7b3c 97df b03d
00000200: 6fc9 b43c 0c10 373d 3f6f 6cbd accf a53c
00000210: b65c f2bb c2c1 fb3c b7e5 383d 2e97 f9bc
00000220: 4289 b13c 2f99 ad3b 9f92 28bd 83c3 edbc
00000230: 8b46 6f3d 58c5 39bd 3b77 b9bb 59e4 7abd
00000240: 8075 7c3d b023 b63d 4766 cf3c 138b 42bd
00000250: 6dc7 a43d ff66 863d 2f1f b0bc 0a25 f1bc
00000260: 563e 8bbd 195f 153d d951 b3bd a9f4 2dbd
00000270: 3c81 7f3d d246 81bd f38c 6fbd 482b e73c
00000280: 8ed7 84bd 8cbb 553d 95da 87bd 51da 50bc
00000290: 188e 81bd 3c1c 293c 1f4b 1dbc ee4a 8b3c
000002a0: 9ea5 20bd b30f 8cbd 0084 a0bc b690 0fbd
000002b0: 2b2f 583d 9a78 95bd f4e9 38bc 32bb b3bb
000002c0: 225e 43bd 9967 363d 6c91 a83c 3182 5cbc
000002d0: 19d7 b3bc ecd1 6fbd 1472 493d 05c3 9dbd
000002e0: 6f07 143c 29a8 11bd 7ea0 f2bc 6f44 c9bd
000002f0: 6908 c0bd 4f7b 063d c7aa 213c a607 a7bd
00000300: 07ea 903c 68b2 2abd 11bd 48bc 1af2 a03d
00000310: 39cf a2bc 0539 a33d e4f5 7fbb a069 7dbd
00000320: 802f 833d e5dc 73bd e0e7 89bd 8c01 3e3d
00000330: fde4 c339 d88f 98bc a976 663d 4536 dbbc
00000340: dfdc 833d 20c7 043d 9f53 3abd 78a4 5c3c
00000350: 07fa 873c d26f a7bd cb5c f2bb 5aa4 3ebb
00000360: ad12 cfbc adac 5dbd 4108 1a3d 91b1 963d
00000370: 8afb 803d acce 103d 222f b23d 607b b23d
00000380: 1ce0 ed3c 94a2 113d 8a43 633d 124c eb3c
00000390: 262d 7b3d 15f2 f8bc a582 40bd 2b15 babc
000003a0: f2f6 883d e0a1 923d 3073 9ebd d696 be3c
000003b0: 06c4 82bd f2bd f6bc b575 76bd 0739 abbd
000003c0: 0689 75bd 4cb7 97bc cdae ab3d 5d8e 963d
000003d0: 92e6 67bd 7f41 2ebd cfed 623d 16a5 8a3c
000003e0: 8d32 2dbd a010 f7bb 2f5c 80bd 1a0b 82bd
000003f0: 6952 433d ed12 74bc f8a0 4ebb 85f3 783c
0.03383186 0.022568917 -0.022463629 0.0643557 -0.002432931 -0.072948664 -0.06547516 0.07610113
-0.034862936 -0.029713713 0.035515584 0.04091379 -0.057385895 -0.032723457 0.02739718 0.06643658
0.09263077 0.00032839022 0.05535968 -0.008758607 0.060243566 -0.039028868 -0.058366574 0.017639766
-0.051131304 -0.046086997 0.07198491 -0.025325583 0.046161696 -0.066704035 0.045761153 -0.07780714
0.021574551 0.043164395 0.041051414 0.034930304 0.011734138 0.060567807 -0.030809592 -0.060367614
-0.046759065 -0.0890739 -0.028322147 -0.054743875 -0.07150478 0.05702446 0.07515827 -0.025740737
-0.03085581 -0.038081963 -0.05884219 0.049049094 0.081922136 -0.030320603 0.06993268 -0.016373653
-0.04728563 -0.02385712 0.055301625 0.02230195 -0.054642323 -0.009365291 0.028856406 0.059249993
0.013062516 0.06263287 0.013438602 0.02740476 -0.033684976 0.03858365 0.052036524 0.00618153
-0.03045882 0.05307625 0.013842867 0.06440844 0.098918565 0.08140903 0.011968868 0.023552338
0.0015482455 -0.021328773 0.08694557 0.04816066 0.0548571 -0.042925783 0.010443227 0.038830686
-0.047516175 0.009154079 -0.005849167 0.013327626 -0.07433792 0.006200133 -0.026297007 0.060201067
0.0031705748 -0.0010422715 -0.0031481003 0.023188666 0.03649025 0.017331274 -0.005131907 0.016129065
-0.03150895 0.051231477 -0.06169597 0.04408231 0.0031988744 -0.03543811 0.00059656287 0.07582805
-0.028270163 -0.0066420934 -0.015334829 0.024916003 -0.08866052 -0.0692322 0.039327808 0.008194319
0.057788696 -0.0030099663 0.025735559 -0.049317323 0.025538586 0.07771401 0.01534039 0.086363964
0.022068707 0.044693038 -0.05772328 0.020240627 -0.007396306 0.03073204 0.04514095 -0.030467596
0.021671895 0.005297802 -0.041155454 -0.029023891 0.058416884 -0.045354217 -0.0056599653 -0.061252926
0.061635494 0.088935256 0.025317324 -0.047495913 0.0804585 0.06562614 -0.021499244 -0.029436607
-0.06798999 0.036467645 -0.087558456 -0.042469654 0.062379107 -0.06312336 -0.05848403 0.02821888
-0.06486426 0.05218081 -0.06633488 -0.012747363 -0.0632593 0.010321673 -0.00960043 0.017003503
-0.039220445 -0.06838932 -0.019594193 -0.035050116 0.052779358 -0.072983935 -0.0112862475 -0.005484962
-0.047697194 0.044532392 0.020577155 -0.013458774 -0.021953152 -0.058549806 0.04918106 -0.07703213
0.009034975 -0.03556076 -0.029617544 -0.09827506 -0.09376604 0.03283244 0.009867377 -0.08155756
0.017689718 -0.041674048 -0.012252108 0.07858677 -0.019874202 0.0796986 -0.0039056474 -0.06186831
0.06405544 -0.059536833 -0.0673368 0.046388194 0.00037363908 -0.018623278 0.056265507 -0.026759276
0.06438612 0.032416463 -0.045489904 0.013466947 0.016598715 -0.08175625 -0.0073963157 -0.002908966
-0.02527746 -0.054119755 0.037605528 0.07358087 0.06297977 0.035353348 0.08700396 0.08714938
0.029037528 0.035555437 0.055484332 0.028722797 0.061322354 -0.030388871 -0.046999592 -0.022715172
0.06687726 0.071597815 -0.07736814 0.023265284 -0.06385045 -0.03011987 -0.060170848 -0.083604865
-0.05994513 -0.01852002 0.0838295 0.073513724 -0.056616373 -0.04254293 0.055402573 0.016924422
-0.042284537 -0.0075398237 -0.062675826 -0.06349774 0.047686014 -0.01489709 -0.003152905 0.015194778

net.0.bias f4 [64]
00000000: a4a1 7cbd e110 663d 1c5f ac3a db08 1d3d
00000010: 689e 073d 4cac 60bd 56bd 7f3d 3d30 77bb
00000020: b360 4b3d 64e5 6ebc d73f cdbc ccc0 e73c
00000030: f625 1cbd a5fa 84bd 5613 353c f02d 383d
00000040: 56b2 f63b d15b aebd af5d 8cbc c2ab 153d
00000050: 2db0 a63d d5ce 243d 3e74 693d 7f63 34bd
00000060: e9e7 9abd afdb 82bb 0a98 d6bb 869e 21bc
00000070: 023f 62bd fabd 88bc 19b5 443c 3bf9 aabd
00000080: ec16 8c3d 7996 aa3c b16c 95bc 9479 323c
00000090: af0f 9dbd 1b27 383d 9656 843c 1403 2bbc
000000a0: 1d01 6bbd ea58 47bd 3241 47bd 77a1 b0bc
000000b0: c166 243d befe 283d f014 493d 3320 1abd
000000c0: 88c1 6cbd e009 04bd ea8d 7e3d a606 6bbd
000000d0: 7dff 913c 665f 3dbd b298 0ebd 71bc 05bc
000000e0: 3cdf adbb fc91 183d eae4 143d ed71 d33c
000000f0: e166 3fbc 0bb2 80bd bcee a13d 59bb 123d
-0.06167759 0.05616844 0.0013150903 0.038338523 0.033110052 -0.054851815 0.062436424 -0.0037717961
0.049652766 -0.014581058 -0.025054855 0.028290175 -0.03812214 -0.06493119 0.011051973 0.044965684
0.0075285835 -0.08513606 -0.017134516 0.036540754 0.081390716 0.040236313 0.056995623 -0.0440402
-0.075637646 -0.0039934735 -0.006548886 -0.009864455 -0.05523587 -0.01669215 0.012006068 -0.08348318
0.068403095 0.020823704 -0.018240305 0.010893244 -0.07669007 0.04495917 0.016154569 -0.010437746
-0.05737411 -0.04866878 -0.04864616 -0.021561367 0.040137056 0.041258566 0.049092233 -0.037628364
-0.057801753 -0.03223598 0.06214706 -0.057379387 0.017822022 -0.046233557 -0.03481359 -0.008162604
-0.0053061526 0.037248597 0.036351122 0.02581116 -0.011682243 -0.06283959 0.07906863 0.0358232

net.2.weight f4 [128, 64, 5]
00000000: 1a3b 6b3d 2fea 123c 873c 64bc ce16 c4bc
00000010: 1c33 7e3c 2bda f73b 695a d7b9 9d79 3cbd
00000020: dd0c d6bc cc0d 173d cc13 ec3c 26d6 00bd
00000030: 82bb 1abc 9cf5 073d e01a 6a3d 06ac 4abd
00000040: 1433 0d3c e6a4 ebbc 0dce 533c 511d 993c
00000050: 1526 1e3c 76d6 203d 2bb2 12bd 00cf 173c
00000060: 6979 883c 75c2 623d 2cfe 1cbd 6562 47bd
00000070: 81f3 f4bc 4140 9dbc 8ef1 c7bc ea3f e63b
00000080: 27a3 963c 1deb 083d 937d 993d ec92 183d
00000090: a42b 073d 6cf9 a83c c099 ecba a864 6bbc
000000a0: 173c 493d b18e 1abd 0eb4 1ebd 1e91 1cbd
000000b0: d87c b33c e43e f13c 0815 54bd 64a8 1f3d
000000c0: 71e3 12bd c028 583c 4ced 823d 651e fa3c
000000d0: f7e7 6a3d 7162 a93c 09c9 233c a825 f03c
000000e0: cb72 463d 08de 623d 389a 243d 0dd5 e7bc
000000f0: 3fac 42bd c41b 9d3c 7ead 4d3d 5d6d 4abd
00000100: 43f8 babc 3a39 5c3b 90e6 583d 0087 15bd
00000110: 61d7 6e3c a4f6 083b 5c7f 7a3c 9b4f 933c
00000120: d6d5 57bb f0a5 53bc 9630 c4bb e1fb 09bd
00000130: 2bd2 52bc fc7e a33b 47fd 013d df9b f03c
00000140: 4b69 1abc 9cc2 543d 72e1 913d 22c9 61ba
00000150: 1753 523c c069 90ba 3591 723d f137 163d
00000160: 7d2e c6bc 9893 42bd fa8b 48bc cf87 9aba
00000170: b55b 643d 264d a6bc 550b f93b fa15 5ebc
00000180: bccb e13c 7c53 903c e352 7d3d f82b 303d
00000190: 5e75 2ebd 02f8 963c 3dba 81bd 77d3 5dbd
000001a0: a9ed e23c 3df4 783d da84 7dbc 0377 103d
000001b0: fbc9 f1bc a1fc ebbc 5ee8 803d 77f2 593d
000001c0: 7ba9 813c d750 7ebc 9a29 643d 4500 3f3d
000001d0: 6315 49bc 51ed cabc bac2 3c3c f825 c4bc
000001e0: 577a 70bc f6b2 873c 21e9 543c bb5f ae3c
000001f0: 94b4 a33c a6c2 563d 64f2 53bd 5da9 b6bc
00000200: 2de9 0c3d 7e7a 383d e527 363c 20ea 923c
00000210: 52d3 65bd f1eb a4bd 3d1c 2a3c e556 d1bc
00000220: 5dac bcbc 4031 a03c 746c ba3c 3730 24bd
00000230: 934a 153d f4ba e13c 1487 f13c 05ab 4abd
00000240: 2500 b03b 69f6 303d 6dc0 3e3d f03d 31bd
00000250: d6cb 453d 240a 363c 9657 b0bc 58e3 3bbd
00000260: 15fe 9eba a410 a13c 565f 4b3d eb15 9bbc
00000270: dbd6 973b 78ca c1bc 3725 13bd 4ddf 79bc
00000280: f54a 83bd be18 b13c 73a6 7cbd b515 1dbb
00000290: 284c 3ebd ce56 c2bc 3593 a6bb 8ffc a2bc
000002a0: 4d33 0abd 2618 e0bc bc8f 39bc 9ca9 61bd
000002b0: 5c6d 7ebc 2701 c5bc 433a 4a3d 30f6 bf3c
000002c0: f54c 4fbd 9e1b 6b3b 3b90 f4bc 81dd 05ba
000002d0: a0f2 e7bb ec4d 1abd 287e bf3c 5fd8 98bb
000002e0: 1903 17bd e6db 5bbd 3358 4d3c 89f9 17bd
000002f0: 9290 123d 5f43 3bbd b2c6 023d a2ed 5dbc
00000300: ec98 eabc 0d28 163d 6eaf 4c3d 3890 e13c
00000310: f23c 29bd 876b 0cbc 749a 5e3b 3e96 123d
00000320: c586 c53b 8d0f e9bc 012e 213d deb3 c5bc
00000330: c813 bf3c 7816 043c 6ab8 6fbc d775 cc3c
00000340: 833c 963d 39a7 b8bb 00ff 1d3a 5bfb 1cbd
00000350: c163 34ba 29b3 17bd 1845 c03c 7343 113d
00000360: 9bb3 a03c 79ca 2e3b b2e7 b23c 1297 46bd
00000370: 2949 56bd e219 5c3d 50ca a23c a02e a8bc
00000380: ba3c 453d 8d38 31bd da36 81bd 13eb 45bd
00000390: 9c42 1dbd 1d62 003d fe71 543d ac28 d0bc
000003a0: 789e 043d 751f 7dbc 57aa 413d d4ca 203c
000003b0: 2110 c33b b10d 163d 7e87 143d f4fe 05bd
000003c0: 5322 963c 32e6 4d3d 59ce d53c ee5f 00bd
000003d0: faf1 e2bc e7d2 243d ca60 26bd 9bb3 49bc
000003e0: 494a ee3c 3310 483d f813 6cbd 1106 17bb
000003f0: d052 b73c 0d4c 1e3c aefd 48bd b17e 633b
0.05742941 0.0089669665 -0.0139304465 -0.023936655 0.015515115 0.0075638494 -0.00041075356 -0.046014417
-0.02612918 0.036878392 0.028818034 -0.031454228 -0.009444119 0.033193216 0.057154536 -0.04948046
0.008618135 -0.028765153 0.012927544 0.018690737 0.009652634 0.039267026 -0.035814445 0.009265661
0.016659455 0.05536123 -0.038328335 -0.04867782 -0.029901268 -0.019195678 -0.024407174 0.007026662
0.018388344 0.033427346 0.074946545 0.03724949 0.033000603 0.020626746 -0.0018051192 -0.01436726
0.04912957 -0.037733737 -0.038745932 -0.038224332 0.021910116 0.029448934 -0.05177787 0.03897895
-0.035861436 0.013193309 0.06392917 0.030532071 0.057350125 0.020676823 0.009996661 0.02931483
0.04844932 0.055387527 0.040186137 -0.028299833 -0.047527548 0.019178279 0.050214283 -0.049420703
-0.022823459 0.0033603446 0.052954257 -0.0365057 0.0145777175 0.0020898962 0.015289154 0.017982295
-0.0032933853 -0.012917981 -0.005987237 -0.033687476 -0.012867491 0.004989503 0.031735685 0.0293712
-0.009424518 0.051943406 0.071230784 -0.000861304 0.012837193 -0.0011017844 0.05922051 0.036674444
-0.02419209 -0.047504038 -0.012240404 -0.0011789742 0.05575152 -0.02030046 0.007600228 -0.013555044
0.027562968 0.017617933 0.061846625 0.043010682 -0.0425924 0.018428806 -0.0633435 -0.054156747
0.027701216 0.0607798 -0.015473569 0.03526975 -0.029515257 -0.028806986 0.062943205 0.053209748
0.015827885 -0.015522203 0.055703737 0.046631116 -0.012273165 -0.024771364 0.011521036 -0.023943886
-0.014677606 0.016564827 0.012995035 0.021285882 0.019983567 0.052431725 -0.051744834 -0.022297556
0.03440206 0.045038693 0.01111791 0.017933905 -0.056109734 -0.08052815 0.010382709 -0.02555413
-0.023031408 0.019554734 0.022756793 -0.040085044 0.036448073 0.027554967 0.029483356 -0.049479503
0.005371111 0.043203745 0.04657023 -0.04327196 0.048290096 0.011110816 -0.02152614 -0.04587111
-0.0012130166 0.019661255 0.049651466 -0.01893135 0.004633767 -0.023656115 -0.035924163 -0.015250993
-0.06410781 0.021618243 -0.061682176 -0.0023969237 -0.046459347 -0.023723032 -0.0050834664 -0.01989582
-0.03374033 -0.027355265 -0.011325773 -0.055093393 -0.015529003 -0.024048401 0.04937197 0.023432821
-0.0506105 0.0035874615 -0.02985393 -0.0005106554 -0.0070784837 -0.03767197 0.023375586 -0.0046644653
-0.03686819 -0.05367651 0.012533235 -0.03710321 0.035782404 -0.045718547 0.031927772 -0.013545426
-0.028637372 0.03665929 0.04997199 0.02753459 -0.041317888 -0.008570558 0.0033966573 0.035787813
0.0060280287 -0.028449798 0.039350513 -0.024133619 0.023324862 0.008061998 -0.01463137 0.024958534
0.073357604 -0.005635169 0.00060270727 -0.03832565 -0.00068813196 -0.037036095 0.023470446 0.035464715
0.019616893 0.0026670976 0.021838997 -0.048483916 -0.052315865 0.05373562 0.01987186 -0.020530045
0.048153616 -0.04326682 -0.0630929 -0.048319887 -0.0383936 0.031343568 0.051866524 -0.025410019
0.03237769 -0.0154493945 0.04728159 0.009813983 0.0059528504 0.03663415 0.036262028 -0.032713845
0.018326914 0.05026836 0.02609937 -0.031341486 -0.027703274 0.040240195 -0.04061965 -0.012310888
0.029088156 0.048843574 -0.05763623 -0.0023044387 0.022378355 0.009661687 -0.049070053 0.0034712965

net.2.bias f4 [128]
00000000: 7e23 c33c 7eac 0bba 076f be3c 893a 34bc
00000010: bc97 2fbd 348f 54bb faf8 c23c b078 ddbc
00000020: 1e82 1eba b87e 5abd 0941 1cbd 5ff5 0bbd
00000030: 88df 093d 5d78 3cbd 3008 863c 1c28 013d
00000040: cf26 cebc 796a 153d 0d00 de3c 5ea6 1bbd
00000050: 543c 2b3d 8d71 e63c 5956 3cbd f256 07bd
00000060: 7f55 113d 9131 223c 2c2a 31bd 53f0 91bc
00000070: 8e9b e2bb 20a9 3dbc f69f 87bc ee5c 4fbd
00000080: de74 75bd 6f74 9d3c c33c 2c3d 20e6 c1bc
00000090: 8b70 86bc 827d 543c eaa6 043d 59da 4fbc
000000a0: 3d3b a0bc fb09 79bd f118 6d3d 3705 893c
000000b0: 22c1 eabc 1d78 38bd f1db 0d3d b871 063d
000000c0: ff4c 683d 0b62 a0bb 11d5 32bd 350c 1d3b
000000d0: 8687 ca3c 7024 373d f625 5e3d c91e acbc
000000e0: 3b09 1d3d d8a6 e7bb c675 4fbd df27 913c
000000f0: bafd 9d3c 46e9 3a3d 5d11 ac3c 4437 d83c
00000100: 89b2 783d 55ca a5bc 7248 103d d708 ccbc
00000110: 49f1 063b 78a8 e9bc 38fb d3bb 0fbf 133d
00000120: 69f3 70ba 32c4 14bd 6e57 fcbc 815d 09bc
00000130: 9abc 5d3d feab 3fbd 5ac2 1ebc 5a74 8e3a
00000140: 1f75 12bd c504 af3c 2d74 3bbd 7a41 ed3c
00000150: 1e20 68bd 60f2 2abd b7af b5bb 108b 5c3d
00000160: b7bb 833c d34d 963b bd5b fa3c 7606 ea3c
00000170: 6945 24bd 7f2f 01bd 0592 87bc 8cfe 7dbc
00000180: 7c23 c4bc 7aac a63c b82f 46bd 1940 1ebd
00000190: d2a5 2b3d d871 0dbd 9da6 cf3c b65a 23bd
000001a0: 34b4 47bb cda3 463d 6101 5ebd c65e 503d
000001b0: dd9f 2abd 6ba8 3e3d c2cc 55bd 2889 853c
000001c0: 42e3 bcbc 9201 393b 2d79 85bc 02a6 063d
000001d0: 5534 c03b 96c1 b03c c587 303d 1854 5d3c
000001e0: 73b2 73bc d92f 553c d4c0 efbc 393b 1ebd
000001f0: fb43 d23c 9e73 28bb 2b55 c4bc 3f2e 493d
0.023820635 -0.00053281325 0.023246301 -0.011000284 -0.042869315 -0.0032433989 0.023800362 -0.027035087
-0.00060466107 -0.053343505 -0.03814796 -0.03416955 0.03366044 -0.046013225 0.016361326 0.031532392
-0.02516499 0.036478493 0.027099634 -0.038000457 0.04180558 0.028130317 -0.045980785 -0.033041902
0.035481926 0.009899513 -0.04325311 -0.01781479 -0.006915516 -0.011575967 -0.016555768 -0.050625734
-0.059925906 0.019220559 0.042050134 -0.023669302 -0.016411087 0.0129693765 0.032385744 -0.0126863355
-0.019559497 -0.060800534 0.057885114 0.01672612 -0.028656546 -0.045036424 0.03463358 0.032823294
0.056714054 -0.0048945 -0.043660227 0.0023963575 0.024722826 0.044712484 0.05423542 -0.021010773
0.03833888 -0.00706945 -0.050649427 0.017719207 0.019286025 0.045632623 0.021004373 0.02639354
0.06071714 -0.020238081 0.03522534 -0.024906559 0.0020590595 -0.028522715 -0.0064691566 0.03607088
-0.00091915444 -0.03631992 -0.030803408 -0.0083841095 0.054134943 -0.046794884 -0.009689892 0.0010868416
-0.035756227 0.021364579 -0.04576509 0.028961886 -0.056671254 -0.041735053 -0.0055446285 0.053843558
0.01608072 0.004586914 0.030561322 0.028567534 -0.040105257 -0.031539436 -0.01654912 -0.015502583
-0.023942702 0.020345915 -0.048385352 -0.038635347 0.041906185 -0.034532398 0.025348002 -0.03988143
-0.00304724 0.048496056 -0.054200534 0.050871633 -0.041656364 0.046547335 -0.052197225 0.016300753
-0.023057584 0.0028229696 -0.016293133 0.03287316 0.0058656135 0.021576684 0.04309823 0.013508819
-0.014874089 0.013011896 -0.029266752 -0.038630698 0.025667181 -0.002570368 -0.023966393 0.04911637

fc.weight f4 [3, 128]
00000000: c3f5 833d f033 a83c b4be 27bd ad64 81bc
00000010: d47b 46bd c396 43bd 3d0a 0e3d 7456 3a39
00000020: 638c 833d e385 ce3b 262e e5bb b8e6 413d
00000030: e4ae 433d c495 9d3d a581 81bc 7368 3a3d
00000040: 36a2 213d 9c4a 8e3d 3b64 9ebd 761d 5d3b
00000050: f859 04bd e7ea 88bd f4d5 5e3d 2421 f6bc
00000060: b295 8d3d 052a b83d 8071 19bd d462 423d
00000070: a7e5 453d 6a3c 983d 9270 523d a122 43bd
00000080: 2f9d 033c c5ae 033d 2c2c 8fbd 75df 5e3d
00000090: 516e 39bd dfcb c83c 1d96 b03d 905d 16bc
000000a0: d531 e63c fa2d 0ebd 5c52 053c 5ff7 853d
000000b0: ed9f c9bb 9a78 96bc d348 a4bd 5026 6abc
000000c0: 489f af3d 469d 2c3d e773 81bc 905c 1bb5
000000d0: 6881 ef3c 2ca0 fe3a bf55 05bd 4d24 aa3c
000000e0: e728 903d 13b4 403d f7c8 4a3c f6a2 bebb
000000f0: 25da 453c da56 a53b 936d 8ebd fb2c 95bc
00000100: 26d5 04bc d75c afbd ebb8 8abd a802 73bb
00000110: e5b6 8abd ecb9 a5bd 92cf ea3c 17db 833c
00000120: b83d 8bbb 7c66 693d 6c76 5f3d 1176 60bd
00000130: a9fe 713d 8694 4b3d 0846 a03d 4db8 34bc
00000140: 3ceb 953d e46d b03c 1c31 21bc add6 4d3d
00000150: 8cca 123c 4ea6 443d ca2f bdbb 1780 bc3d
00000160: 2480 bd3d 04e0 893d 33dd ea3c 7e53 8b3c
00000170: 31ae a03d f106 853d c670 a63d 39f6 07bc
00000180: e9e3 2e3c 237b 3ebc 84b8 6e3d 1463 2c3c
00000190: 7e75 8e3d 13e8 13bd accb 983d 816c 64bd
000001a0: 578c 78bd c70a b93d ed94 393c 53b7 c2bb
000001b0: 2024 c43d c606 8c3b 446d 10bd 6b25 b5bc
000001c0: 8a98 1d3b 398d 8dbd 00d2 8a3d 2401 83bc
000001d0: fda9 a4bd 4b9b b83d f34e 4ebd c178 dd3d
000001e0: 997c 01bb 0a06 7e3d 3042 e9bc 5036 34bc
000001f0: 1bde 52bd 5182 403d 8d0c b4bd 95e5 97bd
00000200: 4d5a 67bd 41eb 5f3c 4016 a0bd 269b a53c
00000210: 5209 a6bd d6d8 2ebd 90b3 783d b867 8b3d
00000220: 08e8 e8b9 27e6 9abd b755 b0bd b060 74bd
00000230: 09d1 4b3d cef5 65bc b340 d83c 2503 01bd
00000240: 7899 bfbc 2d94 be3c d7b0 79bc 0e88 35bd
00000250: 5154 8a3b 86e8 9abd 6b54 0dbd 2a55 3a3d
00000260: b743 17bd b687 11bd 3d55 c13a 5510 163d
00000270: 1855 afbd ec2a 08bd 6988 bb3d a618 433d
00000280: 8c08 f2bc 976b 1cbd 24c0 b8bc 0f20 6a3d
00000290: c43f 97bd 3643 91bc 208e 97bd f386 6a3d
000002a0: dc26 9b3d cedf f93c 5adf 613d 5e8e 83bd
000002b0: 810b 03bd 109b aebd 3e7c 253d 0d38 c03c
000002c0: 4f03 a9bd 1f7a f63c 5592 a83d 5d69 a7bd
000002d0: 1265 70bd 398c 98bd 1fbb bc3d ea6f 223d
000002e0: b705 823c 4b63 173d 10c6 9cbd 5281 f1bc
000002f0: 1827 70bd a016 54bd 0b71 91bc e87f 43bd
00000300: f518 3b3d e51d 21bd e59c 85bd eb35 0cbd
00000310: cf81 7fbd cf84 b8bd cb7b 6d3d 4b60 18bd
00000320: b52f dd3b eb71 063e 9961 f93c 0714 25bd
00000330: 3331 563d 303c 8b3d 2991 6ebd 5c24 82bd
00000340: f54b f6bc 2dce c3bc 93a0 9c3d 450a 3abd
00000350: d3b6 9f3c 7680 efbc 4b38 acbd 6f54 fd3c
00000360: 1d44 30bb 4ee3 6fbd b41e 993d d1c4 773c
00000370: dc80 afbd eaeb 083d acee 7d3d 1085 4bbc
00000380: a993 4a3d 4631 a5bd e220 6dbd 800b 21bc
00000390: 8dc9 0e3d 8c9b 553d c65a 8b3c ae3b fe3c
000003a0: 5542 8dbd ff58 59bd 2963 babc d8fc 1abd
000003b0: 422a 18bc 103d 843d 8930 87bd f94f 9a3d
000003c0: ce4d 63bd 881b d6bc 8411 0c3d 61ec 8c3d
000003d0: 27f8 9f3d 5a37 87bd 2f4c 9bbd 7f97 51bd
000003e0: 0c9c 4abc 3261 b13a 4f9e 53bd a2ae e4bc
000003f0: 2c01 c1bc 4dee 77bd d26f 8dbd bf65 8bbd
0.0644336 0.020532578 -0.040953353 -0.015795076 -0.048457935 -0.0477512 0.034677733 0.00017770549
0.06423261 0.0063025816 -0.0069940267 0.04733917 0.04777421 0.07694581 -0.01580889 0.045509767
0.039461337 0.06947824 -0.07733961 0.0033739484 -0.032312363 -0.06685429 0.05440326 -0.0300451
0.06913318 0.089923896 -0.037461758 0.04745753 0.048314717 0.07433398 0.051376887 -0.047640447
0.008033081 0.032149095 -0.06990847 0.054412324 -0.04527122 0.024511276 0.08622382 -0.0091775805
0.028099934 -0.034711815 0.008137312 0.06541323 -0.006153098 -0.018368054 -0.080217026 -0.014291361
0.08575302 0.042142175 -0.015802337 -5.7876696e-07 0.02923651 0.0019426397 -0.032552477 0.020769263
0.070390515 0.047046732 0.012377015 -0.0058177663 0.0120759355 0.005045754 -0.069544934 -0.018209925
-0.008107459 -0.0856263 -0.067735516 -0.003708044 -0.067731656 -0.080921024 0.02866343 0.016095681
-0.004249301 0.056982502 0.054556295 -0.054800097 0.059080753 0.04970219 0.078258574 -0.011030269
0.07320258 0.021536775 -0.009838369 0.05025356 0.008959424 0.048010163 -0.005773519 0.09204119
0.092529565 0.06732181 0.02866993 0.017007586 0.078457244 0.064954646 0.081269786 -0.00829845
0.010674455 -0.011626038 0.058281437 0.010521669 0.069560036 -0.036109995 0.07460722 -0.05576754
-0.060680714 0.09035259 0.011327011 -0.005942264 0.09577203 0.0042732684 -0.035260454 -0.022112569
0.002404722 -0.06911702 0.067783356 -0.015991755 -0.08040235 0.09013995 -0.05036826 0.108140476
-0.0019758104 0.062017478 -0.028473943 -0.010999277 -0.051481348 0.04699928 -0.08791456 -0.07416836
-0.056482602 0.013666929 -0.07816744 0.020215582 -0.081072465 -0.04268726 0.06071812 0.06806892
-0.00044423365 -0.07563429 -0.08610099 -0.05966252 0.0497599 -0.014035655 0.026398038 -0.03149714
-0.02338861 0.023264015 -0.015239916 -0.044319205 0.004221477 -0.075638816 -0.034504335 0.045491375
-0.036929812 -0.035529815 0.0014750134 0.03663667 -0.08561152 -0.03324406 0.091568775 0.04763093
-0.029545091 -0.038188543 -0.022552557 0.05715948 -0.07385209 -0.017732244 -0.07400155 0.057257604
0.07575771 0.030502226 0.055144645 -0.06423639 -0.031993393 -0.085256696 0.04040169 0.023464227
-0.08252584 0.030087529 0.082310356 -0.08174393 -0.05869014 -0.0744862 0.09215378 0.03965751
0.015871866 0.036959928 -0.07654965 -0.02948061 -0.058631033 -0.05177939 -0.017754098 -0.047729403
0.045678098 -0.03933515 -0.06524066 -0.034231108 -0.062379654 -0.09009706 0.057979386 -0.037201207
0.006750072 0.13129394 0.030442046 -0.040302303 0.052293014 0.06798589 -0.058243904 -0.06354591
-0.030065516 -0.023902023 0.076478146 -0.04541995 0.019496357 -0.02923606 -0.084091745 0.03092405
-0.0026896067 -0.058566384 0.07476559 0.015122608 -0.085695 0.03342811 0.061995193 -0.012421861
0.049457226 -0.08066039 -0.057892688 -0.009829402 0.034860183 0.052150294 0.017011058 0.031034317
-0.068974175 -0.05306339 -0.022752361 -0.037838787 -0.009287419 0.06456959 -0.06601054 0.07534785
-0.055494122 -0.026136175 0.03419639 0.06881023 0.07811003 -0.06602354 -0.0758289 -0.05116987
-0.012366306 0.0013532995 -0.051664647 -0.027915303 -0.02356013 -0.060529996 -0.06906094 -0.06806516

fc.bias f4 [3]
00000000: b7ec 4c3d 0980 4c3c cdcf 7f3d
0.050030436 0.012481698 0.062454034
