model_project/result/lstm_IMU_DH_JOINT_epoch3.pth (torch, 893907 bytes, 10 tensors)

lstm.weight_ih_l0 f4 [512, 46]
0.08339195 -0.01581225 0.063809924 0.09650365 0.029430542 0.043449327 -0.084098265 0.07090023
0.035292104 0.060443014 0.03855792 -0.062399857 -0.04871258 -0.032281157 -0.09170778 -0.009246195
-0.052576996 -0.03321175 -0.023244476 -0.033723965 -0.0145267015 0.013006232 -0.083979495 0.05657017
0.053967766 -0.09885075 -0.0066553573 -0.07678667 -0.030679995 -0.08490771 -0.075067 -0.026399825
-0.03990985 -0.08193952 0.06983393 0.061512165 0.05365868 0.002112925 0.04451182 -0.045681052
-0.094025575 -0.025810886 0.005595354 0.0649662 0.026923265 0.013148636 -0.08156609 0.066409834
0.078137204 -0.017191082 0.07152591 0.04191307 -0.06307307 -0.004542317 -0.041255366 -0.048300408
-0.042878408 0.025610354 0.06669035 0.011587426 0.0042246543 0.08457491 0.010538003 -0.001372496
-0.067123674 0.022577252 0.07997352 0.0792649 0.033559393 0.0060491734 -0.043965507 0.012368662
-0.011172546 -0.01416669 -0.037123743 0.104980536 -0.07478061 -0.07155142 0.060252316 -0.032042347
-0.009778239 -0.0045779273 -0.09796486 -0.086786196 -0.013954697 -0.030850377 0.022967367 -0.05501644
0.029320803 0.005644474 -0.045050062 -0.08024078 -0.0419108 -0.044555347 -0.060849123 -0.045299463
0.006374049 -0.024988234 -0.08999435 -0.038240965 -0.04825781 0.05695167 0.035870675 0.009012629
0.043312605 0.062975675 0.041603245 0.020088922 0.106469825 0.03832173 0.0024115473 0.013092276
-0.021517623 -0.056261238 0.028963082 0.0066715768 0.08117117 -0.053047217 -0.01353417 0.026982872
0.0003599712 -0.023902189 0.015266769 -0.059982475 -0.08093988 -0.020923214 0.07540292 0.023761898
0.016777888 -0.039402615 -0.06435332 -0.06484109 0.030893315 -0.09989433 -0.07317227 0.046678755
0.06580365 -0.05856053 0.066737935 -0.050128818 0.040499378 -0.07741868 0.052110076 0.01674256
-0.026746415 -0.025539791 0.06589306 0.06033716 0.07913536 -0.008173805 0.035501003 -0.07269899
0.027447902 -0.02179831 0.06340735 0.069329515 0.0664217 0.011656282 -0.015452032 -0.07059952
-0.037891507 0.025738113 -0.057149082 -0.039629996 0.06699085 0.08476444 0.0025137286 -0.07526303
0.027074464 -0.0011864208 -0.0039835945 -0.06125256 0.030697696 -0.05420469 0.01309109 0.07759217
-0.06394104 -0.08240042 -0.08530784 0.07895335 -0.0027371245 0.09250798 -0.05406174 -0.0055901078
-0.038763233 -0.06480712 0.085911006 -0.089409284 0.021220166 0.03876504 0.00417325 -0.10214482
0.03388299 -0.10144277 -0.07485827 -0.10159298 0.096128955 0.058563985 -0.059980825 0.11705319
0.015357337 0.036027804 0.036734212 0.0043472233 0.027277518 0.026945291 -0.0013668179 -0.067711316
-0.041210715 -0.011819278 0.012204548 0.03264652 -0.006185843 0.02199028 0.03871023 -0.026031276
0.040797107 -0.030659987 -0.009697445 0.05405896 -0.038648054 -0.04288705 -0.06907326 0.010190688
0.06995847 -0.07088758 -0.027031194 0.101998456 -0.008207749 -0.009094718 -0.05180114 -0.013515264
0.107426226 -0.04600897 -0.022032341 -0.017658247 0.046966977 -0.0831163 -0.023232333 -0.0907314
0.02455897 0.030328013 0.06497477 0.04945071 0.009653218 -0.041954964 -0.03402206 0.0719962
0.031106157 -0.052101634 -0.059515085 0.013065652 -0.07572275 0.017047206 -0.0082153985 -0.013955547
00000000: 66c9 aa3d b188 81bc c7ae 823d b5a3 c53d
00000010: 5218 f13c ecf7 313d b63b acbd 2434 913d
00000020: 748e 103d 1893 773d e9ee 1d3d fe96 7fbd
00000030: d886 47bd 3f39 04bd 4ad1 bbbd 5a7d 17bc
00000040: fa5a 57bd 0b09 08bd 336b bebc 2422 0abd
00000050: 6701 6ebc 1718 553c 71fd abbd 1fb6 673d
00000060: 4e0d 5d3d 4372 cabd 2f15 dabb 5442 9dbd
00000070: 9d54 fbbc 18e4 adbd babc 99bd 7244 d8bc
00000080: 8378 23bd e8cf a7bd 1705 8f3d 2ef4 7b3d
00000090: 34c9 5b3d 0079 0a3b 0752 363d 0e1c 3bbd
000000a0: 7b90 c0bd 5a71 d3bc 3b59 b73b 000d 853d
000000b0: 2e8e dc3c 606d 573c 1f0c a7bd e101 883d
000000c0: 6606 a03d 50d4 8cbc 2d7c 923d 0aad 2b3d
000000d0: 742c 81bd b7d7 94bb 63fb 28bd a6d6 45bd
000000e0: 45a1 2fbd cecc d13c f394 883d 30d9 3d3c
000000f0: f86e 8a3b 9c35 ad3d 97a7 2c3c 53e5 b3ba
00000100: 2378 89bd eef3 b83c 28c9 a33d a355 a23d
00000110: 9375 093d 2538 c63b 2d15 34bd eea5 4a3c
00000120: 0e0d 37bc 681b 68bc 110f 18bd 0900 d73d
00000130: 9426 99bd 8d89 92bd 22cb 763d d63e 03bd
00000140: e834 20bc 7002 96bb cda1 c8bd f6bc b1bd
00000150: 3ea2 64bc eeb9 fcbc 0f26 bc3c eb58 61bd
00000160: 2e32 f03c 48f5 b83b 6a86 38bd 4755 a4bd
00000170: a9aa 2bbd ab7f 36bd ee3c 79bd ee8b 39bd
00000180: 66dd d03b 20b4 ccbc f54e b8bd 8fa2 1cbd
00000190: fba9 45bd 2846 693d 21ed 123d b5a9 133c
000001a0: 8f68 313d 64f9 803d 2a68 2a3d 8691 a43c
000001b0: da0c da3d 3ff7 1c3d 0d0b 1e3b fc80 563c
000001c0: ba45 b0bc 2f72 66bd fc43 ed3c 3e9d da3b
000001d0: 123d a63d 0a48 59bd 6cbe 5dbc 2f0b dd3c
000001e0: 84ba bc39 86ce c3bc 7821 7a3c 2fb0 75bd
000001f0: cfc3 a5bd 2967 abbc d96c 9a3d 50a8 c23c
00000200: c871 893c a364 21bd accb 83bd 68cb 84bd
00000210: fa13 fd3c 6695 ccbd 58db 95bd 3932 3f3d
00000220: 10c4 863d 2bdd 6fbd e6ad 883d e053 4dbd
00000230: ade2 253d af8d 9ebd 6071 553d b127 893c
00000240: 4c1b dbbc d338 d1bc f1f2 863d 1924 773d
00000250: b811 a23d 6ceb 05bc 8069 113d 35e3 94bd
00000260: 6cda e03c 5f92 b2bc b6db 813d a2fc 8d3d
00000270: 1a08 883d fdf9 3e3c 852a 7dbc 7b96 90bd
00000280: 2034 1bbd bcd8 d23c 2815 6abd 1053 22bd
00000290: 8032 893d fb98 ad3d 5ebd 243b 8123 9abd
000002a0: 44cb dd3c ad81 9bba d088 82bb f7e3 7abd
000002b0: bc79 fb3c bd05 5ebd 037c 563c a5e8 9e3d
000002c0: 85f3 82bd 8dc1 a8bd e0b5 aebd 4bb2 a13d
000002d0: 5461 33bb d374 bd3d d86f 5dbd 392d b7bb
000002e0: 32c6 1ebd 98b9 84bd 1cf2 af3d 371c b7bd
000002f0: ead5 ad3c 17c8 1e3d c2bf 883b 4e31 d1bd
00000300: e4c8 0a3d 3ac1 cfbd 4b4f 99bd fb0f d0bd
00000310: 42df c43d cae0 6f3d 74ae 75bd 95b9 ef3d
00000320: 579d 7b3c e491 133d 9d76 163d 2773 8e3b
00000330: 1a75 df3c 5fbc dc3c cc26 b3ba 3bac 8abd
00000340: 91cc 28bd a5a5 41bc 96f5 473c 5bb8 053d
00000350: 9db2 cabb f624 b43c 9e8e 1e3d 8b3f d5bc
00000360: de1a 273d a72a fbbc 08e2 1ebc ee6c 5d3d
00000370: 6c4d 1ebd 55aa 2fbd 4876 8dbd d8f6 263c
00000380: 6346 8f3d 822d 91bd 8670 ddbc 91e4 d03d
00000390: cb79 06bc 0302 15bc 6f2d 54bd 206f 5dbc
000003a0: 4802 dc3d e773 3cbd 2b7d b4bc 07a8 90bc
000003b0: 7260 403d e138 aabd bc51 bebc 62d1 b9bd
000003c0: e52f c93c 7472 f83c 7e11 853d d48c 4a3d
000003d0: 8828 1e3c f8d8 2bbd b75a 0bbd be72 933d
000003e0: 57d2 fe3c 8668 55bd 17c6 73bd 5111 563c
000003f0: 8714 9bbd 95a6 8b3c e199 06bc cea5 64bc

lstm.weight_hh_l0 f4 [512, 128]
0.053999614 -0.022421336 0.04235929 -0.10239862 0.05201015 0.04663173 -0.020119915 -0.036797397
-0.08454289 0.09755614 0.042684596 -0.089145936 -0.06747518 -0.058826055 -0.0725262 -0.07667561
0.0065546497 0.002134939 0.03897595 0.0012782761 -0.10226326 0.06620007 -0.029485382 -0.0014002048
-0.0071695372 -0.033124294 -0.06953614 0.06178186 0.008005106 -0.074615285 0.04333222 -0.032274175
-0.08949367 0.022176001 -0.05481161 0.03396413 0.051262744 0.027664164 0.057330996 -0.075394556
0.093855396 -0.00038399865 0.0618135 -0.049217112 -0.07623909 0.07110909 -0.01700927 0.07489748
0.016080875 0.05396819 0.049143963 0.014619947 -0.09618235 0.027838426 0.089508325 -0.07115799
-0.07609859 0.06059981 0.03140178 -0.00046392024 -0.06965679 -0.041810703 -0.07648039 0.0903647
-0.0034252896 -0.063873455 -0.042553335 0.024748415 0.06955459 0.07913451 0.03466406 0.009981289
-0.052456323 -0.0061704977 0.056240328 -0.08777776 -0.009602812 0.043026038 -0.0551686 0.01417797
-0.002061984 -0.01959628 0.013440542 -0.02116705 -0.018651476 0.004527999 -0.08582827 0.023474252
-0.01872042 -0.068467125 0.04283934 0.0626848 0.03226648 -0.025430363 0.031234238 0.064464994
-0.07764245 0.039392184 -0.07425111 -0.055923663 0.08859898 -0.02626279 0.0654679 0.016975423
0.040435277 -0.02369448 -0.06640737 -0.01565298 0.041035615 0.002852502 -0.06773176 -0.00823199
-0.024723507 0.017203882 -0.05599029 0.021387488 0.05917237 0.101485275 0.010406791 0.0008544403
-0.03891602 0.046195175 -0.04151652 0.08685214 0.056062195 0.06560995 0.028809214 -0.020264465
0.05145071 0.0012482287 0.031076966 0.08512636 -0.080973536 0.06734421 0.008931113 -0.021252051
-0.0077330074 0.053831626 -0.07066226 0.04349896 -0.08756344 0.042055245 -0.035460874 -0.0068644956
0.073398076 0.097495854 -0.023730248 -0.008811582 -0.072783366 0.047348313 -0.07783654 0.0640367
-0.026280811 -0.069223754 0.070827715 0.0445222 -0.013512054 -0.08202272 0.054012045 -0.010504293
0.043444622 -0.06172808 0.061934993 0.007575353 0.02791938 -0.07223975 0.017219428 -0.077338085
-0.051105175 0.0586878 -0.07771895 -0.03791021 0.023548655 -0.029904509 -0.012446436 -0.042156007
0.07159173 -0.05901113 0.032767717 -0.003573913 0.012585752 -0.050867394 0.075693555 0.06164679
-0.043092214 -0.09813781 -0.004084582 0.019499876 0.06418448 -0.0717536 -0.0898955 -0.0011259068
-0.094907075 -0.0940429 0.02826039 1.9417042e-05 0.06700703 0.031951074 0.017398536 -0.070445895
-0.05662831 0.08620899 0.06732858 0.05714818 -0.048545413 -0.043665584 0.07141912 0.06672217
-0.07718976 0.017974695 0.080763035 -0.041131992 0.0030365456 -0.01997146 -0.046292726 0.020883823
0.08323299 0.0608379 0.026223067 0.031529054 -0.08492174 0.09165984 0.053323366 0.03605596
-0.02783439 -0.07460244 0.02220382 0.05826363 -0.06359915 -0.005845882 0.042651977 0.07646247
0.059167754 0.03853905 0.029531108 -0.04794185 0.078506514 -0.049020007 -0.09000374 -0.0039382745
0.03314456 0.042396642 -0.016548058 0.0067979284 -0.041812137 0.006800904 0.038999002 -0.031523485
-0.017571976 -0.018948289 -0.072256476 -0.075957045 -0.04187707 0.08061671 0.020251885 -0.07459044
00000000: b32e 5d3d f3ac b7bc ef80 2d3d 5eb6 d1bd
00000010: 9808 553d ea00 3f3d 85d2 a4bc deb8 16bd
00000020: d324 adbd 83cb c73d 0bd6 2e3d 2592 b6bd
00000030: 6d30 8abd 97f3 70bd 9e88 94bd 1a08 9dbd
00000040: 63c8 d63b 55ea 0b3b 3fa5 1f3d d48b a73a
00000050: 666f d1bd e793 873d 548b f1bc 1487 b7ba
00000060: 70ee eabb 57ad 07bd f768 8ebd fa0e 7d3d
00000070: d927 033c e6cf 98bd 207d 313d ed31 04bd
00000080: 7548 b7bd 72aa b53c 2482 60bd f91d 0b3d
00000090: e2f8 513d f59f e23c e8d3 6a3d 7668 9abd
000000a0: 4237 c03d 6d53 c9b9 2730 7d3d e297 49bd
000000b0: 3d23 9cbd a4a1 913d 0657 8bbc da63 993d
000000c0: 0abc 833c c00d 5d3d 2e4b 493d 8188 6f3c
000000d0: 40fb c4bd 690d e43c 2450 b73d 48bb 91bd
000000e0: 94d9 9bbd 8237 783d 279f 003d 523a f3b9
000000f0: 38a8 8ebd b341 2bbd c0a1 9cbd 2111 b93d
00000100: d37a 60bb 16d0 82bd 684c 2ebd 30bd ca3c
00000110: a372 8e3d 4611 a23d e7fb 0d3d 8f88 233c
00000120: 71dc 56bd e331 cabb 425c 663d d4c4 b3bd
00000130: 1d55 1dbc 123c 303d 78f8 61bd b74a 683c
00000140: 5a22 07bb 6188 a0bc b835 5c3c 8566 adbc
00000150: fbca 98bc 9c5f 943b bbc6 afbd 134d c03c
00000160: 915b 99bc 7e38 8cbd 4e78 2f3d e360 803d
00000170: db29 043d 5653 d0bc f2de ff3c 3906 843d
00000180: 0103 9fbd b359 213d f710 98bd 3610 65bd
00000190: 6273 b53d 1025 d7bc 0914 863d 0b10 8b3c
000001a0: 769f 253d ed1a c2bc 9600 88bd ae3a 80bc
000001b0: f614 283d 0bf1 3a3b f3b6 8abd 78df 06bc
000001c0: f488 cabc 28ef 8c3c 1356 65bd d034 af3c
000001d0: ba5e 723d 83d7 cf3d 3f81 2a3c 85fc 5f3a
000001e0: 6866 1fbd 2737 3d3d 3a0d 2abd 89df b13d
000001f0: 79a1 653d 825e 863d 4d01 ec3c aa01 a6bc
00000200: fbbd 523d 9b9b a33a 1f95 fe3c bb56 ae3d
00000210: 74d5 a5bd c3eb 893d ce53 123c c818 aebc
00000220: 2b65 fdbb 8d7e 5c3d 60b7 90bd f72b 323d
00000230: 7654 b3bd 1f42 2c3d 6c3f 11bd 90ef e0bb
00000240: bb51 963d e8ab c73d f065 c2bc 745e 10bc
00000250: 720f 95bd 4ef0 413d c468 9fbd ac25 833d
00000260: db4a d7bc 2fc5 8dbd 1f0e 913d e95c 363d
00000270: aa61 5dbc 87fb a7bd bc3b 5d3d 331a 2cbc
00000280: fdf2 313d 95d6 7cbd 8caf 7d3d ab3a f83b
00000290: 2fb7 e43c 6ff2 93bd c20f 8d3c 6e63 9ebd
000002a0: a953 51bd 9e62 703d 1d2b 9fbd bd47 1bbd
000002b0: 1ce9 c03c 4dfa f4bc 23ec 4bbc c7ab 2cbd
000002c0: af9e 923d a8b5 71bd 7137 063d 4f38 6abb
000002d0: 7834 4e3c 545a 50bd 3905 9b3d 5881 7c3d
000002e0: 7681 30bd 7afc c8bd f5d7 85bb 34be 9f3c
000002f0: 2773 833d 8df3 92bd 221b b8bd 2a93 93ba
00000300: a45e c2bd 9099 c0bd 5582 e73c c8e1 a237
00000310: fb3a 893d 21df 023d 6087 8e3c f045 90bd
00000320: 16f3 67bd 578e b03d 91e3 893d 3614 6a3d
00000330: 8ed7 46bd afda 32bd 3044 923d a2a5 883d
00000340: aa15 9ebd ab3f 933c 1767 a53d 057a 28bd
00000350: c800 473b 309b a3bc 719d 3dbd 8d14 ab3c
00000360: 0f76 aa3d 2931 793d c2d1 d63c 9c24 013d
00000370: 73eb adbd 27b8 bb3d 9a69 5a3d 6aaf 133d
00000380: f204 e4bc 2ac9 98bd c9e4 b53c d8a5 6e3d
00000390: 4540 82bd d08e bfbb d7b3 2e3d 5b98 9c3d
000003a0: e359 723d 1fdb 1d3d 39eb f13c ac5e 44bd
000003b0: 06c8 a03d 34c9 48bd e153 b8bd a40c 81bb
000003c0: 97c2 073d 1aa8 2d3d cb8f 87bc 28c1 de3b
000003d0: 3443 2bbd 1eda de3b 6bbd 1f3d c51e 01bd
000003e0: 1bf3 8fbc 7139 9bbc 34fb 93bd 5e8f 9bbd
000003f0: 4a87 2bbd 601a a53d 48e7 a53c dfc2 98bd

lstm.bias_ih_l0 f4 [512]
-0.048711766 -0.043756276 0.058395006 0.008737159 -0.049951185 0.021083945 0.04519033 -0.04415682
0.004215931 0.013021159 0.02873685 -0.020691054 -0.086211905 -0.07476335 0.025451055 0.054592516
-0.024522044 -0.048056487 -0.024098057 -0.045790896 -0.03314784 -0.044174436 -0.031828165 0.017927935
-0.039882228 -0.030362949 -0.024939068 -0.05579424 -0.065445356 -0.049545567 -0.012542612 -0.023993101
0.033234768 -0.03867001 0.02508025 0.05346565 -0.028464094 -0.04209426 -0.07435421 -0.041847937
-0.0035939103 0.07454806 0.0106419325 0.007909412 0.056322552 -0.036499754 0.0045236484 0.046624076
0.089618355 -0.041281953 0.04346076 0.060827885 -0.059915505 -0.012526012 0.049504407 -0.022575503
-0.08476694 0.08573218 -0.031567663 -0.01985295 0.041700836 -0.013651998 0.013369593 -0.055290416
-0.029823098 -0.064054355 0.093423545 -0.01774641 -0.008224763 0.08788991 0.041566238 0.048131507
0.015498176 -0.004821703 -0.031228594 0.021075137 0.03187531 -0.07473779 0.086803265 -0.06359681
-0.06253367 0.0045084553 0.06896465 -0.058291446 0.025915597 0.038109183 -0.048001707 -0.024241282
-0.025750147 0.014313746 0.051398423 -0.052494347 -0.07033718 0.06530973 -0.07012977 -0.060547557
-0.05148714 0.078068174 -0.045835134 -0.0075089443 -0.02989243 0.050679307 0.055161007 -0.0913178
-0.01446237 0.07222307 0.03080531 -0.063276775 0.00661013 -0.058044285 -0.06863169 0.06731068
-0.022641495 0.07320988 0.044876356 -0.06705419 -0.006085051 0.008854524 -0.0050008288 0.020459875
0.022648523 -0.002048682 0.055685982 0.021724636 0.08015576 -0.026691489 -0.09515674 0.08813327
0.038844924 0.0110230185 -0.041322175 0.050766747 -0.036937773 -0.009179383 -0.03964682 -0.02604738
-0.07380996 0.05219249 -0.07355375 0.045304697 -0.088256456 -0.09196655 -0.027345074 -0.054598514
-0.05811206 0.07696241 0.054568283 -0.06088985 -0.030119013 0.07014785 0.014447629 -0.040451903
-0.0060893632 0.049080525 -0.06280252 0.096622914 0.055429824 -0.05033272 0.102898866 -0.03442067
0.06375763 0.017372154 -0.034479987 0.062433187 0.0052209217 0.017837305 -0.08223087 0.009590758
-0.07964985 0.04350764 -0.06114608 0.06474173 0.09289397 0.050451647 0.0679787 -0.012443226
0.038548347 0.004112865 0.05299102 0.00021898074 0.06054539 0.078121655 0.09472344 -0.019706378
0.07040634 0.050091524 0.008545387 -0.046882614 0.07475645 -0.012157319 -0.09073614 0.069629654
0.0058425153 -0.032896213 -0.0035311058 0.024996743 -0.03649353 0.081943154 -0.03799796 -0.032576494
0.0002284414 0.058322284 -0.043183032 0.09338055 0.037635095 0.06290348 -0.028408328 0.006541459
0.0927916 0.00081916066 -0.011944523 -0.048258938 0.08925788 0.00896593 0.013006981 -0.03055791
-0.017299945 -0.031986527 0.057544414 -0.069745235 0.04063944 -0.024345517 0.08343102 0.08182464
0.081702024 0.07742751 0.051253736 0.054010592 0.058512863 -0.055864416 -0.06702542 -0.057410788
0.06813189 -0.05277913 0.028098848 -0.08026981 -0.037326876 0.08212235 -0.019241827 0.06449088
-0.004369415 -0.07386869 0.040240847 -0.016854942 -0.015066317 0.09665139 0.07425068 0.054193057
-0.03050952 -0.099536985 -0.03685518 0.025374718 0.033270016 0.0262285 0.009011883 -0.038928002
00000000: fd85 47bd c839 33bd 9a2f 6f3d 4d26 0f3c
00000010: 9d99 4cbd 3db8 ac3c 7f19 393d c8dd 34bd
00000020: cb25 8a3b b356 553c 8b69 eb3c 4980 a9bc
00000030: de8f b0bd 871d 99bd bb7e d03c 679c 5f3d
00000040: 74e2 c8bc e1d6 44bd 4a69 c5bc 3c8f 3bbd
00000050: 08c6 07bd 41f0 34bd 405e 02bd 9bdd 923c
00000060: 8c5b 23bd b8bb f8bc 044d ccbc 8088 64bd
00000070: 3708 86bd 4bf0 4abd 877f 4dbc 2e8d c4bc
00000080: 2e21 083d 7264 1ebd 1975 cd3c ccfe 5a3d
00000090: 882d e9bc 086b 2cbd 0547 98bd be68 2bbd
000000a0: cf87 6bbb a7ac 983d 805b 2e3c 7a96 013c
000000b0: 7ab2 663d c480 15bd 1d3b 943b e3f8 3e3d
000000c0: d489 b73d 4417 29bd e903 323d a926 793d
000000d0: f669 75bd e739 4dbc 22c5 4a3d 43f0 b8bc
000000e0: 4a9a adbd 5a94 af3d 184d 01bd a7a2 a2bc
000000f0: 7fce 2a3d a1ac 5fbc 230c 5b3c 3478 62bd
00000100: 924f f4bc ee2e 83bd d854 bf3d eb60 91bc
00000110: 28c1 06bc a0ff b33d 5c41 2a3d 8b25 453d
00000120: 10ec 7d3c 60ff 9dbb 1cd3 ffbc c4a5 ac3c
00000130: af8f 023d 2010 99bd e9c5 b13d 0b3f 82bd
00000140: a711 80bd aabb 933b 573d 8d3d 03c3 6ebd
00000150: f24c d43c 6018 1c3d 709d 44bd a795 c6bc
00000160: f9f1 d2bc 3484 6a3c 2787 523d 5004 57bd
00000170: f00c 90bd 1cc1 853d 32a0 8fbd b700 78bd
00000180: 2ee4 52bd 35e2 9f3d 9fbd 3bbd 970d f6bb
00000190: f8e0 f4bc 1b95 4f3d 82f0 613d d404 bbbd
000001a0: 94f3 6cbc b0e9 933d 6b5b fc3c 4197 81bd
000001b0: ca99 d83b d8bf 6dbd c68e 8cbd 2fda 893d
000001c0: a87a b9bc 10ef 953d 45d0 373d b553 89bd
000001d0: 1c65 c7bb 9112 113c fedd a3bb 789b a73c
000001e0: 6589 b93c 2e43 06bb fc16 643d ddf7 b13c
000001f0: b428 a43d 1ca8 dabc 89e1 c2bd 377f b43d
00000200: db1b 1f3d e499 343c 7141 29bd cbf0 4f3d
00000210: 104c 17bd 1f65 16bc b464 22bd 5161 d5bc
00000220: ad29 97bd cbc7 553d 59a3 96bd 6b91 393d
00000230: cdbf b4bd f558 bcbd c702 e0bc b1a2 5fbd
00000240: e906 6ebd 789e 9d3d fe82 5f3d a367 79bd
00000250: 26bc f6bc ada9 8f3d c0b5 6c3c e5b0 25bd
00000260: 4889 c7bb a908 493d 9c9e 80bd 3ce2 c53d
00000270: 620a 633d af29 4ebd a4bc d23d b0fc 0cbd
00000280: 5c93 823d 0c50 8e3c e33a 0dbd f1b9 7f3d
00000290: 4414 ab3b 8a1f 923c a968 a8bd 8e22 1d3c
000002a0: 761f a3bd 1135 323d 5074 7abd 5097 843d
000002b0: 323f be3d 63a6 4e3d 6b38 8b3d acde 4bbc
000002c0: dfe4 1d3d 36c5 863b 1d0d 593d 329e 6539
000002d0: 71fe 773d 3ffe 9f3d 5dfe c13d 456f a1bc
000002e0: 3331 903d c52c 4d3d f301 0c3c fc07 40bd
000002f0: e919 993d 7e2f 47bc dfd3 b9bd fe99 8e3d
00000300: 9272 bf3b 2ebe 06bd 206a 67bb f8c5 cc3c
00000310: 3d7a 15bd d0d1 a73d c0a3 1bbd ee6e 05bd
00000320: c589 6f39 59e3 6e3d b1e0 30bd 4d3e bf3d
00000330: 4227 1a3d 8ad3 803d 95b8 e8bc bc59 d63b
00000340: 8609 be3d f1bc 563a f6b2 43bc 2aab 45bd
00000350: d6cc b63d d6e5 123c 3c1b 553c 9554 fabc
00000360: 9db8 8dbc 4e04 03bd b1b3 6b3d 97d6 8ebd
00000370: 8b75 263d 4070 c7bc e2dd aa3d ad93 a73d
00000380: 6453 a73d 5092 9e3d 70ef 513d 363a 5d3d
00000390: 2fab 6f3d 16d2 64bd a044 89bd 9327 6bbd
000003a0: bb88 8b3d ee2e 58bd 8e2f e63c 8064 a4bd
000003b0: 11e4 18bd c32f a83d 09a1 9dbc cb13 843d
000003c0: 4f2d 8fbb 7848 97bd 96d3 243d 6013 8abc
000003d0: b7d8 76bc 2af1 c53d be10 983d 8af9 5d3d
000003e0: 1aef f9bc 0cda cbbd 75f5 16bd a4de cf3c
000003f0: 2446 083d 27dd d63c 94a6 133c f872 1fbd

lstm.bias_hh_l0 f4 [512]
-0.06859976 0.00822831 0.016499616 -0.045514695 0.042057958 -0.062303435 0.058497395 -0.023199456
0.087294616 -0.046897534 -0.07706413 0.023767779 -0.078817725 -0.048808057 -0.08805931 0.07553729
0.017861752 0.031431843 -0.011349269 -0.07677104 -0.0013905118 -0.036958367 0.04472921 -0.048204258
-0.06784452 0.031295255 -0.054950576 0.075015046 0.07068541 -0.02034179 0.09455663 -0.008001575
0.09849929 -0.065127596 -0.047191955 0.06935447 -0.007986563 0.07751452 0.016137937 -0.0830227
-0.0859027 0.036788687 -0.047083605 0.04675667 0.08569141 0.0074890265 0.043468308 -0.0067600436
-0.0576246 -0.06921719 0.0018537308 -0.008325231 -0.04860986 0.037183534 -0.04814643 0.01713572
0.054221716 -0.084515736 0.0289675 -0.07285531 0.075591 0.008843784 -0.074114576 0.05312908
-0.007809905 -0.030348659 0.094301134 0.06801003 0.056328204 0.080882475 -0.01385889 -0.010650748
0.011083789 0.05772182 -0.020915803 0.06472844 7.33565e-05 0.059013035 0.007726677 -0.015096708
-0.061734278 -0.028646452 -0.017484887 0.0674042 0.01931115 0.055598713 0.1106442 -0.010502746
-0.075337075 0.023773273 -0.03861186 -0.053969897 0.08270906 0.053488303 -0.037320647 0.047239058
-0.02152014 0.009653183 0.0337036 0.037303943 0.034669787 9.482184e-05 -0.07386407 -0.07799233
-0.07203192 -0.0729767 0.09047689 -0.017364137 0.08700686 -0.005838986 0.043021377 -0.010671098
0.027708525 -0.004059736 0.11771573 0.023263874 -0.014470434 0.007841638 -0.020437526 0.03579659
-0.021143092 -0.080000095 0.052684426 0.058063347 0.077375725 -0.036970977 -0.034808937 -0.0132056745
0.054372173 -0.006737286 -0.013354019 -0.00931981 -0.046685837 -0.0602414 0.032697964 0.055800058
0.023508193 0.069841884 0.09141012 -0.077605784 0.068262145 -0.08035307 -0.06273844 -0.009211286
0.0028997571 0.04176848 -0.04220451 7.679721e-05 0.066778086 0.07920442 0.016664088 -0.059045747
0.03167304 -0.014849599 -0.011902147 -0.028473962 0.010978499 0.047664616 0.030934857 0.051679444
-0.05308216 0.005315743 0.011592675 0.022566505 0.07453082 -0.07721858 -0.00884859 -0.050605666
0.0381628 -0.013752631 0.063506864 -0.02221064 0.028215133 0.08299135 -0.07944107 0.0739669
0.009334941 0.008077581 -0.07188368 0.09145574 0.06373281 0.0028131467 0.06831653 0.021571703
-0.07167768 -0.0893334 -0.00154784 0.06858511 0.08286021 -0.05155133 -0.007947257 -0.057722803
-0.054992266 -0.05441275 -0.040598925 -0.082237214 0.08099388 -0.05138994 0.055551704 -0.043246
0.06619388 0.018292056 0.05457726 -0.015096049 -0.003780864 -0.04760149 -0.044567242 0.07267011
-0.0008400427 -0.081404865 -0.056287263 -0.06874493 -0.017012851 0.0048581217 -0.05827583 -0.038588
-0.039418183 -0.01113652 0.04218445 -0.04745646 -0.023373695 -0.005516336 0.09823047 0.015877005
0.050319098 0.029165376 0.026932733 0.026641091 -0.022856034 0.04801716 0.08058405 0.056244895
-0.025143813 -0.019062387 0.081271134 -0.040019564 -0.0674534 0.053786136 -0.013825594 0.0119442465
-0.037376203 -0.05107374 -0.013765615 0.06037563 -0.007263124 0.017181553 0.020936457 0.066465616
-0.02513342 -0.04553495 -0.029951556 -0.032763693 -0.07831415 0.07019554 -0.010507892 -0.081766136
00000000: 087e 8cbd 09d0 063c 342a 873c 9e6d 3abd
00000010: f744 2c3d e331 7fbd f79a 6f3d c90c bebc
00000020: 85c7 b23d a117 40bd ccd3 9dbd a5b4 c23c
00000030: 306b a1bd f5ea 47bd 7158 b4bd 4bb3 9a3d
00000040: cf52 923c adbe 003d 49f2 39bc 233a 9dbd
00000050: d541 b6ba a861 17bd fa35 373d d471 45bd
00000060: 11f2 8abd 742f 003d db13 61bd 7da1 993d
00000070: 83c3 903d d3a3 a6bc e8a6 c13d 0a19 03bc
00000080: ffb9 c93d 9e61 85bd 5a4c 41bd b709 8e3d
00000090: 13da 02bc efbf 9e3d b533 843c ce07 aabd
000000a0: c1ed afbd bcaf 163d bdda 40bd ec83 3f3d
000000b0: fa7e af3d 8266 f53b d30b 323d 5b83 ddbb
000000c0: c607 6cbd bec1 8dbd e2f8 f23a 8d66 08bc
000000d0: 221b 47bd c34d 183d 3135 45bd 3660 8c3c
000000e0: 9717 5e3d 9616 adbd 404d ed3c 2a35 95bd
000000f0: 74cf 9a3d 85e5 103c 62c9 97bd e19d 593d
00000100: 3bea ffbb c09d f8bc f420 c13d d848 8b3d
00000110: 67b8 663d b6a5 a53d 6610 63bc 7a80 2ebc
00000120: c898 353c b76d 6c3d 9e57 abbc 5890 843d
00000130: f9d6 9938 a7b7 713d 1130 fd3b 2f58 77bc
00000140: 15dd 7cbd f7ab eabc 773c 8fbc 370b 8a3d
00000150: 6b32 9e3c 7abb 633d 6d99 e23d b613 2cbc
00000160: 534a 9abd 2bc0 c23c 7827 1ebd 8a0f 5dbd
00000170: 5e63 a93d 8d16 5b3d 89dd 18bd be7d 413d
00000180: 014b b0bc 6228 1e3c c90c 0a3d 05cc 183d
00000190: e801 0e3d 16db c638 0c46 97bd 71ba 9fbd
000001a0: 7985 93bd cf74 95bd f34b b93d 3c3f 8ebc
000001b0: a730 b23d f754 bfbb 2f37 303d d4d5 2ebc
000001c0: fdfc e23c 8907 85bb f214 f13d e193 be3c
000001d0: 6615 6dbc 377a 003c 996c a7bc 729f 123d
000001e0: 4734 adbc 17d7 a3bd a0cb 573d d5d3 6d3d
000001f0: 2a77 9e3d e16e 17bd d193 0ebd 9d5c 58bc
00000200: 5bb5 5e3d 74c4 dcbb d1ca 5abc 1eb2 18bc
00000210: a639 3fbd b0bf 76bd 4dee 053d 9a8e 643d
00000220: 4194 c03c 4309 8f3d 3b35 bb3d c8ef 9ebd
00000230: 06cd 8b3d 2690 a4bd 037d 80bd efea 16bc
00000240: da09 3e3b 6d15 2b3d a3de 2cbd 300e a138
00000250: f3c2 883d ed35 a23d 2083 883c f4d9 71bd
00000260: 97bb 013d bc4b 73bc 3901 43bc 3a42 e9bc
00000270: 2adf 333c f93b 433d 196b fd3c d3ad 533d
00000280: ae6c 59bd af2f ae3b 34ef 3d3c 64dd b83c
00000290: 9da3 983d c624 9ebd adf9 10bc e347 4fbd
000002a0: 9950 1c3d b752 61bc e30f 823d 17f3 b5bc
000002b0: 6c23 e73c 5ef7 a93d 00b2 a2bd f57b 973d
000002c0: 95f1 183c d557 043c c037 93bd 264d bb3d
000002d0: 5986 823d c55c 383b 89e9 8b3d 24b7 b03c
000002e0: bfcb 92bd 6ef4 b6bd e4e0 caba 5a76 8c3d
000002f0: 9db2 a93d 7d27 53bd 3635 02bc bf6e 6cbd
00000300: 923f 61bd e7df 5ebd 0f4b 26bd fc6b a8bd
00000310: 1fe0 a53d 427e 52bd 2f8a 633d b822 31bd
00000320: a890 873d 39d9 953c 688c 5f3d 6b55 77bc
00000330: 5fc8 77bb c8f9 42bd 248c 36bd 11d4 943d
00000340: 5036 5cba 98b7 a6bd 798d 66bd 24ca 8cbd
00000350: 895e 8bbc e130 9f3b a3b2 6ebd 730e 1ebd
00000360: f674 21bd f375 36bc 9ac9 2c3d b461 42bd
00000370: 317a bfbc 61c2 b4bb 0f2d c93d 7e10 823c
00000380: 661b 4e3d 3aec ee3c 09a2 dc3c 6b3e da3c
00000390: 943c bbbc a4ad 443d 4009 a53d 0c61 663d
000003a0: 66fa cdbc b928 9cbc 7b71 a63d 8eeb 23bd
000003b0: 0225 8abd da4e 5c3d bf84 62bc cdb1 433c
000003c0: ca17 19bd b332 51bd 2d89 61bc 704c 773d
000003d0: 80ff edbb 54c0 8c3c ef82 ab3c 201f 883d
000003e0: 9ae4 cdbc db82 3abd f75c f5bc 3933 06bd
000003f0: 2b63 a0bd aec2 8f3d 4b29 2cbc 0175 a7bd

lstm.weight_ih_l1 f4 [512, 128]
-0.007381155 -0.086595364 0.04633079 0.093146496 0.0011017452 -0.035942677 0.06503689 -0.066853575
0.033996463 0.012340415 -0.10812701 0.015321942 -0.055231992 -0.06345276 0.08070653 0.060902786
-0.02414685 -0.031781718 -0.086479835 -0.06694847 0.05651085 -0.013894085 -0.059087858 -0.07340515
-0.08150823 0.038699217 0.0028089213 0.06268963 0.069208175 -0.06275633 -0.0274172 -0.0019944257
-0.047268283 -0.0065144007 0.028251667 0.026950784 0.06279117 0.008823144 0.05016657 -0.0269881
0.052366443 0.011294402 -0.067052536 -0.0459292 0.008437985 0.062500864 0.08858494 -0.06547739
0.041654073 -0.057786364 0.054223932 0.068326846 0.08300177 0.07063716 -0.031805743 -0.00495721
-0.049489386 0.034635335 0.016290806 0.03076708 0.06510427 -0.064829774 -0.00067927886 -0.09039916
-0.052815244 0.02946951 0.05209824 -0.037814204 -0.05826179 0.04406358 0.05657509 -0.06623189
0.07344801 0.019408567 0.02564041 -0.0069128782 -0.0097633675 -0.008777472 -0.03213745 -0.041445706
-0.039706033 -0.04863719 0.07357349 -0.0053658034 -0.03107225 0.03378443 0.08331287 -0.03269575
0.04743719 0.06700722 0.059364676 -0.05871903 0.04562537 0.077922575 -0.04231136 0.08967958
0.032503795 -0.093299456 -0.026785636 0.0038460768 -0.04208163 0.079407185 0.021812182 0.07717901
-0.0034450025 0.013466596 -0.08219902 -0.033568613 0.011157301 -0.069512986 -0.043749467 -0.0822931
-0.01562746 -0.016174844 0.07908768 -0.1014542 0.068450436 0.0038722493 0.014547746 0.020771984
-0.043218408 -0.010557959 -0.042648938 0.00049401517 -0.015119161 -0.08589397 -0.018178612 0.026604887
0.015627204 0.07968923 0.033769503 0.094017535 0.0007622673 -0.061250217 0.07183983 0.031609215
0.0034751052 -0.05230956 0.05233844 0.020733353 -0.014816403 0.019926403 0.045819014 -0.09424775
0.065676056 0.058734175 -0.054393474 0.05720957 -0.041848168 0.027449679 0.038405266 -0.059173636
-0.08580346 -0.057428915 0.06869026 -0.031401496 0.0535437 -0.078535795 -0.062290676 -0.011833497
0.09084111 -0.07346442 0.05740351 0.07484171 -0.021176493 0.079299755 -0.03682257 0.019797748
-0.05919985 0.0869333 -0.07649778 -0.06104911 0.03097691 -0.061624575 -0.035030648 0.08931439
0.0059859003 -0.058222897 0.07915558 -0.038265623 -0.077745825 0.004441377 -0.026460717 0.034656078
0.030281872 -0.012344412 0.05772516 0.03428704 0.038326815 0.05856913 -0.028864488 -0.014243953
-0.04159338 -0.038759004 0.04303703 -0.0055958657 0.07314953 0.023796536 -0.011545806 -0.033574887
-0.019839192 0.04111539 -0.06062456 0.057780787 0.017801583 -0.07656768 0.040057253 -0.036973156
-0.017177265 -0.03970887 -0.040150333 -0.06345094 0.003189221 0.0071741953 -0.04874465 -0.08033375
0.037253905 -0.024918832 -0.083530135 0.036077593 0.057646807 -0.0019738304 -0.043848388 -0.032419365
0.013453206 0.07642986 -0.039566603 -0.04058817 0.0691761 0.012547754 0.013314584 0.064343184
0.007524808 0.05690216 -0.058684207 0.084155515 -0.073603764 -0.040848035 0.05694922 0.032549597
-0.027523585 -0.022403324 0.027260773 -0.10963334 -0.08541215 -0.009989688 -0.055289175 -0.046706013
-0.052904658 -0.03458332 0.048661277 0.029490734 0.053585496 -0.08149877 -0.0020051068 0.05447524
00000000: 9edd f1bb e958 b1bd 5bc5 3d3d 97c3 be3d
00000010: 6f68 903a a138 13bd 1032 853d 87ea 88bd
00000020: e03f 0b3d 742f 4a3c b271 ddbd e208 7b3c
00000030: f13a 62bd 85f3 81bd 7749 a53d 3375 793d
00000040: 9dcf c5bc 8c2d 02bd 571c b1bd 481c 89bd
00000050: ec77 673d 04a4 63bc 1c06 72bd 7055 96bd
00000060: c9ed a6bd 1283 1e3d e115 383b 6c63 803d
00000070: 04bd 8d3d 6486 80bd 099a e0bc e9b4 02bb
00000080: 639c 41bd c176 d5bb 0a70 e73c e4c7 dc3c
00000090: a898 803d f38e 103c 767b 4d3d 2616 ddbc
000000a0: 327e 563d 280c 393c d752 89bd 4220 3cbd
000000b0: 793f 0a3c 7400 803d 056c b53d 0319 86bd
000000c0: 769d 2a3d 65b1 6cbd ea19 5e3d f2ee 8b3d
000000d0: d5fc a93d 37aa 903d bd46 02bd 1770 a2bb
000000e0: 62b5 4abd c8dd 0d3d 4c74 853c 3e0b fc3c
000000f0: 6355 853d 79c5 84bd a211 32ba 3223 b9bd
00000100: cc54 58bd 0b6a f13c f764 553d 11e3 1abd
00000110: eaa3 6ebd 037c 343d 48bb 673d 96a4 87bd
00000120: e96b 963d b7fe 9e3c d60b d23c 6d85 e2bb
00000130: 88f6 1fbc 63cf 0fbc 8fa2 03bd f9c2 29bd
00000140: cba2 22bd ca37 47bd b3ad 963d 9fd3 afbb
00000150: 3b8b febc 8b61 0a3d f09f aa3d fbeb 05bd
00000160: 804d 423d 153b 893d 6028 733d 5e83 70bd
00000170: abe1 3a3d df95 9f3d ad4e 2dbd eda9 b73d
00000180: b322 053d c913 bfbd 8d6d dbbc 760e 7c3b
00000190: ca5d 2cbd 3ca0 a23d 76af b23c 0710 9e3d
000001a0: 8dc5 61bb ffa2 5c3c f657 a8bd 3e7f 09bd
000001b0: 1dcd 363c d35c 8ebd a432 33bd 4989 a8bd
000001c0: 2905 80bc 1b81 84bc b9f8 a13d 38c7 cfbd
000001d0: be2f 8c3d 90c5 7d3b ab59 6e3c 022a aa3c
000001e0: c905 31bd 4afb 2cbc a7b0 2ebd cc80 013a
000001f0: 5cb6 77bc 2ee9 afbd 50eb 94bc 7ef2 d93c
00000200: 9f04 803c 1b34 a33d e451 0a3d 448c c03d
00000210: e4d2 473a 82e1 7abd c320 933d aa78 013d
00000220: 97be 633b 8d42 56bd d560 563d fed8 a93c
00000230: 80c0 72bc b23c a33c b8ac 3b3d f704 c1bd
00000240: 2b81 863d 3f93 703d b1cb 5ebd 9554 6a3d
00000250: fc68 2bbd 26de e03c d74e 1d3d 0e60 72bd
00000260: b9b9 afbd 953a 6bbd 7bad 8c3d db9e 00bd
00000270: a450 5b3d 60d7 a0bd 8224 7fbd 49e1 41bc
00000280: e70a ba3d 8474 96bd f11f 6b3d 9c46 993d
00000290: 537a adbc e967 a23d 43d3 16bd e32e a23c
000002a0: 8b7b 72bd 160a b23d deaa 9cbd a20e 7abd
000002b0: 4ac3 fd3c 0d6a 7cbd 4c7c 0fbd 77ea b63d
000002c0: 5f25 c43b 227b 6ebd 521c a23d 6abc 1cbd
000002d0: 3439 9fbd f888 913b 25c4 d8bc 88f3 0d3d
000002e0: b011 f83c 3740 4abc 3871 6c3d 9170 0c3d
000002f0: 94fc 1c3d 2fe6 6f3d 3875 ecbc 785f 69bc
00000300: d25d 2abd c3c1 1ebd 9947 303d 865d b7bb
00000310: 6ccf 953d f4f0 c23c 9f2a 3dbc d285 09bd
00000320: cd85 a2bc 9c68 283d 7551 78bd 8cab 6c3d
00000330: a0d4 913c 84cf 9cbd 1313 243d 2a71 17bd
00000340: 56b7 8cbc c5a5 22bd ad74 24bd 91f2 81bd
00000350: 4002 513b 8315 eb3b 78a8 47bd 0586 a4bd
00000360: 8d97 183d 9422 ccbc d911 abbd 19c6 133d
00000370: 0f1f 6c3d 615b 01bb 5e9a 33bd 2bca 04bd
00000380: d66a 5c3c 4287 9c3d 9710 22bd c83f 26bd
00000390: 33ac 8d3d 1895 4d3c 6a25 5a3c 5cc6 833d
000003a0: aa92 f63b 3d12 693d da5e 70bd ba59 ac3d
000003b0: 92bd 96bd 4550 27bd 9643 693d ba52 053d
000003c0: 2479 e1bc 2d87 b7bc fc51 df3c 7287 e0bd
000003d0: 91ec aebd caab 23bc e776 62bd ce4e 3fbd
000003e0: 8eb2 58bd 3da7 0dbd 0c51 473d 8d96 f13c
000003f0: 777c 5b3d d4e8 a6bd 1c68 03bb 6e21 5f3d

lstm.weight_hh_l1 f4 [512, 128]
0.03782688 0.03808417 -0.009790435 -0.009314608 -0.085180126 0.060678817 -0.016995404 -0.057153177
-0.03454737 -0.056477565 0.08416247 -0.03403157 0.02848004 0.08083993 -0.047775522 0.059014983
0.009286107 0.061659366 0.08000353 0.013126649 -0.05618209 -0.013375286 -0.058146298 -0.07450606
-0.058177363 -0.061370168 -0.028236257 0.035873517 0.075041145 -0.06313908 0.07391684 0.0018618703
-0.0077624465 -0.017662935 -0.06552744 0.037501786 -0.009797041 -0.07098385 0.026855612 -0.06620518
-0.09293619 -0.01699523 0.06289428 0.07465846 -0.021837045 0.020855032 0.0216883 0.023064118
-0.0787078 -0.015314868 0.051635392 -0.0195117 0.03781688 0.018733438 -0.07009056 -0.020692438
-0.040717997 0.02218192 0.0823299 0.07914622 0.07714826 0.08196635 0.08734497 -0.01730955
-0.030648174 0.06105021 -0.01169728 -0.01405855 0.008062573 0.051577743 0.08508363 0.00804556
-0.057358194 0.0127172945 0.03581164 -0.014235225 0.048818752 -0.025600497 -0.05279046 0.036030255
-0.044995744 -0.040164795 0.030402053 -0.05039867 -0.06308151 0.06177897 0.018802103 -0.04954837
-0.0619666 -0.04046646 -0.032824658 0.008400506 -0.073391594 0.038144447 -0.022365402 0.008196694
0.059421875 0.040755507 0.048648328 0.06423048 -0.025972007 0.010884172 -0.058596842 0.031516273
-0.03545592 0.058515053 0.0564166 -0.038941912 -0.098150246 0.0334092 0.016663775 0.043466624
0.017178895 0.08217771 0.051533993 0.0203743 0.004758058 -0.079887725 -0.051770728 0.034858864
0.0082057305 -0.08436392 0.052207407 0.019936431 0.033213783 -0.030708376 0.0054113436 0.032567073
-0.036544345 0.027608356 0.06437883 0.04729307 0.002227089 0.025127646 0.06450931 -0.0135332905
0.043719906 0.0036595273 -0.05464388 0.000121499936 -0.021244837 -0.016799653 0.03153829 0.05491084
0.012038533 0.012602638 -0.027466109 -0.046049606 -0.0025030102 0.006574212 -0.038694605 -0.036282636
-0.07465966 0.021854373 -0.059877146 0.023478912 -0.047186516 0.0776345 0.07682777 -0.06559931
-0.0028286683 -0.06608034 0.037495274 0.06662896 0.090859495 -0.0368932 0.085456766 0.023291279
-0.014121098 0.06365114 -0.031900533 0.054037288 -0.0106795775 0.0072279763 -0.040726837 0.046320472
-0.005607691 0.03572102 0.025293153 -0.02046265 -0.08284877 -0.004176904 -0.010312526 -0.0041566705
0.07610015 -0.053100616 -0.07807421 0.042451195 0.019381773 0.042986605 -0.015024616 -0.055050913
0.047802936 -0.008407506 0.051596686 -0.008265785 -0.035469268 -0.047825627 -0.061670173 -0.071809724
-0.06478024 0.072328694 0.07173862 -0.030187588 -0.011273482 -0.029159907 -0.048063174 -0.017383289
-0.0034950578 0.087900184 -0.08115461 -0.00024225967 -0.069024146 0.006824711 -0.04165157 0.04305026
0.06463173 0.011518216 0.051830288 0.052553896 0.050731234 0.08170434 -0.05720192 0.03656547
0.02763079 -0.06096507 -0.082471006 -0.069262564 0.024174705 -0.025896981 0.067102104 0.03283093
0.06146382 0.06811911 0.050422657 0.010066441 -0.06414805 0.03855439 0.020450478 -0.10605447
0.06592489 -0.03611219 0.08626537 0.00091167865 -0.012675157 0.06956667 0.06534385 -0.024623694
-0.026611712 0.0072211297 0.07568653 0.05843674 -0.018368738 0.019306745 -0.043600053 0.056195304
00000000: 5cf0 1a3d 26fe 1b3d 1068 20bc 4c9c 18bc
00000010: eb72 aebd 5a8a 783d f239 8bbc 7319 6abd
00000020: 8b81 0dbd 0555 67bd 605d ac3d b064 0bbd
00000030: f94e e93c 688f a53d 44b0 43bd b2b9 713d
00000040: c124 183c 888e 7c3d e4d8 a33d 2811 573c
00000050: 311f 66bd 0424 5bbc d02a 6ebd a296 98bd
00000060: 634b 6ebd 495f 7bbd b94f e7bc 1cf0 123d
00000070: 2caf 993d 104f 81bd b661 973d 000a f43a
00000080: 1f5c febb dcb1 90bc 4033 86bd 799b 193d
00000090: c583 20bc fb5f 91bd 4d00 dc3c 9596 87bd
000000a0: 5455 bebd 9539 8bbc b7ce 803d 89e6 983d
000000b0: 9ae3 b2bc 2cd8 aa3c a9ab b13c f6f0 bc3c
000000c0: 8e31 a1bd 36eb 7abc a27f 533d 00d7 9fbc
000000d0: dfe5 1a3d de76 993c a48b 8fbd 3083 a9bc
000000e0: eac7 26bd dcb6 b53c 949c a83d 6a17 a23d
000000f0: e8ff 9d3d f9dd a73d ebe1 b23d c2cc 8dbc
00000100: e111 fbbc c90f 7a3d f3a5 3fbc d555 66bc
00000110: e218 043c 2f43 533d 5440 ae3d 86d1 033c
00000120: 6df0 6abd 335c 503c 3aaf 123d dc3a 69bc
00000130: 2cf6 473d 22b8 d1bc cf3a 58bd 7694 133d
00000140: 754d 38bd d783 24bd ba0d f93c d66e 4ebd
00000150: e130 81bd f20b 7d3d de06 9a3c 3bf3 4abd
00000160: b1d0 7dbd 29c0 25bd 2673 06bd 47a2 093c
00000170: 554e 96bd 5a3d 1c3d a637 b7bc 6d4b 063c
00000180: 5a64 733d 3fef 263d 7843 473d 458b 833d
00000190: 3fc3 d4bc 8753 323c 3e03 70bd 3517 013d
000001a0: 3a3a 11bd 7bad 6f3d 1815 673d 8e81 1fbd
000001b0: ff02 c9bd 16d8 083d 7882 883c 0f0a 323d
000001c0: c1ba 8c3c ca4c a83d 4f15 533d 01e8 a63c
000001d0: 7ce9 9b3b 2d9c a3bd 8b0d 54bd 2bc8 0e3d
000001e0: 5471 063c fec6 acbd 6fd7 553d ba51 a33c
000001f0: 2d0b 083d 2290 fbbc a451 b13b 0d65 053d
00000200: 86af 15bd eb2a e23c 0cd9 833d 61b6 413d
00000210: 5af4 113b 7ed8 cd3c 751d 843d bcba 5dbc
00000220: a513 333d aed4 6f3b 43d2 5fbd c8cd fe38
00000230: a709 aebc 6d9f 89bc 4b2e 013d 30ea 603d
00000240: 443d 453c 4c7b 4e3c 9b00 e1bc 839e 3cbd
00000250: 8b09 24bb 7d6c d73b 3c7e 1ebd 1a9d 14bd
00000260: 2ae7 98bd f107 b33c bd41 75bd d956 c03c
00000270: a646 41bd d6fe 9e3d e157 9d3d ee58 86bd
00000280: 2e61 39bb 2155 87bd a594 193d c474 883d
00000290: 8b14 ba3d 531d 17bd f503 af3d 5acd be3c
000002a0: 2e5c 67bc 875b 823d 22aa 02bd 3456 5d3d
000002b0: 65f9 2ebc a9d8 ec3b 2fd1 26bd 89ba 3d3d
000002c0: b9c0 b7bb 3450 123d 9633 cf3c 4aa1 a7bc
000002d0: 9eac a9bd 69de 88bb def5 28bc ae34 88bb
000002e0: 65da 9b3d 0880 59bd 5fe5 9fbd 4ee1 2d3d
000002f0: 86c6 9e3c b912 303d cf29 76bc 117d 61bd
00000300: 03cd 433d a3bf 09bc 0c57 533d 376d 07bc
00000310: 3948 11bd cee4 43bd dd99 7cbd fa10 93bd
00000320: 81ab 84bd 1121 943d b3eb 923d f64b f7bc
00000330: 69b4 38bc c2e0 eebc e4dd 44bd 6667 8ebc
00000340: 570d 65bb 0305 b43d 6334 a6bd 1607 7eb9
00000350: 885c 8dbd d3a1 df3b d69a 2abd 7855 303d
00000360: a45d 843d e6b6 3c3c ff4b 543d c142 573d
00000370: 8ecb 4f3d 9b54 a73d 8f4c 6abd adc5 153d
00000380: f759 e23c 82b6 79bd 8fe6 a8bd 88d9 8dbd
00000390: 080a c63c e825 d4bc d46c 893d ba79 063d
000003a0: 7dc1 7b3d 0882 8b3d fd87 4e3d b7ed 243c
000003b0: 0e60 83bd 35eb 1d3d c387 a73c 1633 d9bd
000003c0: a103 873d 60ea 13bd e6ab b03d b8fd 6e3a
000003d0: 76ab 4fbc f878 8e3d ffd2 853d a1b7 c9bc
000003e0: ce00 dabc 3a9f ec3b 8a01 9b3d 5d5b 6f3d
000003f0: 097a 96bc 2e29 9e3c f895 32bd 0c2d 663d

lstm.bias_ih_l1 f4 [512]
-0.035157423 -0.042634346 -0.038758487 -0.06915348 0.08038782 -0.0359897 0.0031333475 0.02775237
-0.07272765 -0.07187047 0.028345268 0.0548607 -0.091216125 -0.023141902 -0.10512644 0.017069992
-0.059092086 0.0032150266 0.044327646 -0.04316722 -0.079613395 -0.06337345 0.023262622 -0.01764282
-0.09140593 0.065389484 -0.075594224 0.07157465 0.055670816 -0.02201961 0.030478949 -0.04467635
-0.035273645 -0.05671474 -0.06634127 -0.055395514 0.023407334 0.056480512 0.05923714 0.033312324
0.041738607 -0.027400069 0.04649687 0.061023504 0.049052928 -0.08934449 -0.010969722 -0.079433985
-0.080374956 -0.051021993 -0.005611311 0.05453811 0.006809601 0.057834715 0.021272616 0.093439035
-0.008044714 -0.06744211 0.09124934 0.087855935 0.0027319374 0.07105931 0.06211318 0.07596016
-0.026522255 0.065845184 -0.074903786 -0.02367282 -0.08110577 -0.004148539 -0.0009097602 0.040232792
-0.04647643 0.02685087 0.02568038 -0.031087676 -0.0027536424 0.013060243 -0.013979066 -0.021868648
0.024605323 -0.028362615 -0.036863085 0.0044175945 -0.0422769 0.004023438 0.041509826 -0.011265802
0.0753589 -0.007227492 0.006201906 -0.033164803 0.07249864 0.03994796 0.07399507 0.044934116
0.08973697 -0.047329295 0.08876715 0.038568765 -0.058905315 -0.030118873 0.0049981102 -0.067987345
-0.062652394 -0.06935725 0.035819065 0.006609871 0.0010998454 0.09027584 -0.06352221 0.007558932
-0.0077112275 0.011856738 -0.022346012 0.045668297 -0.037735876 0.07794429 0.07059697 -0.032231726
-0.083170444 0.0072071822 0.06298102 0.06960303 -0.079920486 0.029056448 0.051173672 -0.00846578
-0.05950164 -0.009368417 -0.0051216003 0.012114158 -0.07905621 -0.017741589 -0.062494554 -0.00733831
0.055671416 0.06245477 -0.02003808 -0.06380228 -0.07635811 0.057773992 -0.08242872 -0.068745956
0.028914554 0.06777034 0.058034416 -0.033892963 0.08535421 -0.06271664 -0.048113342 -0.019145915
0.07895617 -0.045404624 -0.028650545 -0.012375657 -0.038375515 0.00083802023 -0.009115343 -0.04786994
-0.074836545 -0.07347231 0.060485557 -0.06334096 -0.048989628 0.099726364 -0.030596659 -0.05674971
0.08398965 0.06982926 -0.101087965 0.023534425 -0.06082661 -0.07137243 0.023494067 0.061856855
0.034135655 -0.037179273 0.020643992 -0.02774845 -0.053470653 0.043100167 0.003984273 0.053605787
0.034612723 -0.005064836 -0.07456744 0.0929136 -0.0913511 -0.044846434 0.0361731 -0.009567635
0.063793726 0.049999118 -0.013461515 -0.0030267192 -0.03972238 -0.101592585 -0.019928887 -0.051479667
-0.004750243 0.09570234 0.040161934 0.06906611 0.03217327 0.0033164984 0.073725894 -0.062237058
0.014614991 -0.06956008 0.022410847 0.020167032 0.06159279 -0.0018459215 -0.044870373 -0.08229712
-0.019036133 0.09485797 0.06666724 0.025028342 0.051938687 0.030827515 -0.021911902 0.012992211
0.08832111 -0.027940826 -0.08137541 -0.09769571 -0.05928053 0.0034373868 0.04539096 0.053938054
-0.07415583 0.04912545 -0.074232884 -0.0049167303 0.028527627 -0.026636332 -0.009175575 0.003426135
0.08071663 0.019176193 -0.055870224 -0.073107526 -0.07876899 0.01354307 -0.078768075 0.073109284
0.045437302 -0.030419778 0.050854526 -0.06626349 0.04249772 -0.025959322 0.053149745 0.05531766
00000000: 3b01 10bd 5aa1 2ebd 38c1 1ebd 57a0 8dbd
00000010: 5fa2 a43d f069 13bd d958 4d3b f058 e33c
00000020: 3cf2 94bd d330 93bd 5634 e83c 9db5 603d
00000030: 85cf babd 1694 bdbc 884c d7bd 5ed6 8b3c
00000040: 8b0a 72bd 32b3 523b e890 353d 1cd0 30bd
00000050: 590c a3bd f0c9 81bd 4191 be3c ad87 90bc
00000060: 0833 bbbd ecea 853d 25d1 9abd bb95 923d
00000070: 1507 643d 7862 b4bc fdae f93c 8cfe 36bd
00000080: 197b 10bd b74d 68bd efdd 87bd 68e6 62bd
00000090: bdc0 bf3c 1c58 673d a5a2 723d 8172 083d
000000a0: 1af6 2a3d 1c76 e0bc 8173 3e3d c8f3 793d
000000b0: b9eb 483d 3efa b6bd 59ba 33bc 49ae a2bd
000000c0: a09b a4bd 70fc 50bd 17df b7bb 5a63 5f3d
000000d0: 1323 df3b 18e4 6c3d e943 ae3c f75c bf3d
000000e0: facd 03bc 171f 8abd efe0 ba3d d0ed b33d
000000f0: 4e0a 333b 8b87 913d 646a 7e3d 0091 9b3d
00000100: 3345 d9bc d7d9 863d 2867 99bd 80ed c1bc
00000110: c81a a6bd 78f0 87bb f97c 6eba 24cb 243d
00000120: 125e 3ebd 5bf6 db3c a95f d23c 95ab febc
00000130: 7476 34bb a1fa 553c 7408 65bc e125 b3bc
00000140: 1a91 c93c b758 e8bc bffd 16bd 78c1 903b
00000150: 8b2a 2dbd 0bd7 833b 3506 2a3d 3394 38bc
00000160: c455 9a3d 99d4 ecbb 5c39 cb3b d1d7 07bd
00000170: 2b7a 943d 79a0 233d ba8a 973d d60c 383d
00000180: 04c8 b73d 5ddc 41bd 8dcb b53d 48fa 1d3d
00000190: b346 71bd dbbb f6bc 30c7 a33b f33c 8bbd
000001a0: e64f 80bd 2d0b 8ebd 03b7 123d 9e97 d83b
000001b0: b028 903a 8ae2 b83d ef17 82bd ebb0 f73b
000001c0: 77ae fcbb c342 423c fc0e b7bc ae0e 3b3d
000001d0: ef90 1abd 42a1 9f3d 2595 903d 6a05 04bd
000001e0: 4455 aabd 3a2a ec3b 31fc 803d 098c 8e3d
000001f0: 5aad a3bd ca07 ee3c 7c9b 513d 0eb4 0abc
00000200: feb7 73bd fd7d 19bc 19d3 a7bb 767a 463c
00000210: 39e8 a1bd cf56 91bc 4afa 7fbd 3576 f0bb
00000220: b607 643d 93d0 7f3d e626 a4bc c5aa 82bd
00000230: a461 9cbd 6ca4 6c3d 64d0 a8bd aeca 8cbd
00000240: 37de ec3c 2dcb 8a3d 7fb5 6d3d 59d3 0abd
00000250: 30ce ae3d 9571 80bd 7f12 45bd e5d7 9cbc
00000260: c6b3 a13d 33fa 39bd 8cb4 eabc 45c3 4abc
00000270: a52f 1dbd 96ae 5b3a 8558 15bc 4513 44bd
00000280: e743 99bd a778 96bd b4bf 773d e8b8 81bd
00000290: 59a9 48bd 563d cc3d d8a5 fabc 6272 68bd
000002a0: c402 ac3d a502 8f3d 3507 cfbd 44cb c03c
000002b0: 5325 79bd b52b 92bd a176 c03c 9d5d 7d3d
000002c0: d4d1 0b3d 4b49 18bd 971d a93c b850 e3bc
000002d0: 0b04 5bbd cd89 303d 818e 823b be91 5b3d
000002e0: 12c6 0d3d ecf6 a5bb d0b6 98bd 7c49 be3d
000002f0: 4916 bbbd e5b0 37bd 3f2a 143d 92c1 1cbc
00000300: 49a6 823d e0cb 4c3d b08d 5cbc ec5b 46bb
00000310: efb3 22bd c60f d0bd e841 a3bc 58dc 52bd
00000320: eda7 9bbb 97ff c33d d780 243d 8872 8d3d
00000330: 1ec8 033d 9c59 593b 9afd 963d 49ec 7ebd
00000340: b773 6f3c 8475 8ebd f496 b73c 5535 a53c
00000350: b948 7c3d d9f2 f1ba ffc9 37bd 648b a8bd
00000360: aaf1 9bbc e544 c23d d588 883d 3d08 cd3c
00000370: a9bd 543d fc89 fc3c 9780 b3bc 48dd 543c
00000380: b3e1 b43d 29e4 e4bc 27a8 a6bd b014 c8bd
00000390: 24d0 72bd c845 613b dfeb 393d 26ee 5c3d
000003a0: 03df 97bd c537 493d 6907 98bd 861c a1bb
000003b0: c5b2 e93c 7034 dabc 2755 16bc 0289 603b
000003c0: c34e a53d 6417 9d3c 2dd8 64bd 66b9 95bd
000003d0: a351 a1bd c1e3 5d3c 2851 a1bd 52ba 953d
000003e0: 771c 3a3d e632 f9bc d64c 503d 27b5 87bd
000003f0: 1712 2e3d a5a8 d4bc 8cb3 593d c594 623d
