model_project/result/lstm_IMU_JOINT_epoch4.pt (torch, 865135 bytes, 10 tensors)

lstm.weight_ih_l0 f4 [512, 32]
000000 0c 74 cc 3b 31 21 28 3d 9a 1b 63 bc 30 6d 27 3d
       0.00623942 0.04104728 -0.013861561 0.040875614
000010 63 c1 7e 3c 80 3a c7 bd 69 8c 11 bd f0 93 c2 bd
       0.015549037 -0.09727955 -0.035534296 -0.09500873
000020 c9 4e af bc c9 50 2b bd ad 70 f1 bd e2 ee f2 bc
       -0.021399872 -0.04182509 -0.11789069 -0.029654924
000030 69 b6 82 bd 0c e2 b0 bd 30 9d 00 bd e3 99 a8 bd
       -0.06382448 -0.08636865 -0.031399906 -0.082324766
000040 97 9c 11 bd 75 88 5b 3c 99 82 c4 3d 9f 7f 04 bd
       -0.035549726 0.013399233 0.09595222 -0.03234827
000050 af 20 49 3d 22 1c 34 3d 5e 11 c6 3c ce 03 90 bd
       0.049103435 0.043972142 0.024178203 -0.07031976
000060 c7 30 cf 3d 81 94 d4 3c 63 57 aa bc 14 69 c6 3d
       0.101167254 0.025949718 -0.020793622 0.09688011
000070 66 b5 1a 3d 24 e5 d3 3d 16 5c 90 3d 2b 52 65 bd
       0.03777065 0.103464395 0.07048814 -0.055986565
000080 04 cb 39 3c cd c4 0d bd 26 75 fb bb 98 21 fc 3b
       0.011339907 -0.034611512 -0.0076738773 0.0076944344
000090 24 83 fd bb 9b fb 28 bd 84 bb 09 bd 11 0a 71 bc
       -0.0077365804 -0.041255575 -0.033626094 -0.014711873
0000a0 4e 2a 01 3d 53 8b ab 3d 71 7b 66 3d eb 8c 7b 3d
       0.031534486 0.08376183 0.056270067 0.061413687
0000b0 32 57 c6 3c 29 f3 97 3c a7 bf 9e bc b1 2a f2 bc
       0.0242115 0.018548565 -0.019378496 -0.029561372
0000c0 9f 46 90 3d 5e ee 59 3d b5 6b 76 ba e9 76 34 bc
       0.0704472 0.05320584 -0.0009400205 -0.0110146785
0000d0 a8 37 db 3c 4c db 4f bd 98 ac c1 3c a6 6b 7b bd
       0.026759937 -0.050746247 0.02364187 -0.06138196
0000e0 bb b7 53 bd 08 74 be 3d e6 c3 38 bd 6e 0d 88 3d
       -0.05168889 0.09299475 -0.0451087 0.066431865
0000f0 9b a4 98 3d 23 d3 41 bd 97 3d e2 bd a8 d7 ae 3c
       0.07453271 -0.047320496 -0.110469036 0.021343067
000100 b9 89 1c bd cf 42 8d bd fb f2 98 3d b3 2c 89 3b
       -0.03821728 -0.06897508 0.0746822 0.0041862368
000110 71 39 59 bd 9a 2d be bd 49 6f 28 3d e2 9e 58 3d
       -0.053033296 -0.092860416 0.041121755 0.052885897
000120 0d 68 3d bc e0 8c a9 bc 8e d7 a0 bc 55 75 a0 bb
       -0.011560452 -0.020697057 -0.019634034 -0.0048967996
000130 49 39 b3 3c e2 df ca bd bc 70 ea 3d 83 1f 53 bd
       0.021877902 -0.099059835 0.114472836 -0.051543724
000140 47 b0 02 3d a0 3d 47 bd ab e9 34 3d a6 83 09 bc
       0.031906392 -0.048642755 0.044168156 -0.008393204
000150 30 7d 17 3d bf 51 be bd ff c0 80 bd c4 4d 63 bd
       0.036984622 -0.092929356 -0.06286811 -0.055494085
000160 3a 33 a6 3d b7 cc f8 bb 06 d6 e6 3c d5 cd a3 3d
       0.081152394 -0.0075927633 0.028178226 0.07998244
000170 33 3e 5e bd 1a ad 11 bd be 0c 19 bb 78 30 28 3d
       -0.054258537 -0.035565473 -0.0023353542 0.04106185
000180 52 e5 04 3d ba 73 31 3d 78 4a 97 3c 2c 78 9f 3d
       0.03244526 0.043323256 0.018468127 0.07786593
000190 34 bb 23 3d fd a4 04 3d d9 43 98 3d 11 1d d7 3c
       0.039973453 0.032383908 0.07434816 0.026258977
0001a0 07 b4 c6 bd 39 3e 8a bd 49 76 19 3d 00 02 cd bc
       -0.09702306 -0.06750149 0.03746632 -0.025025368
0001b0 b8 0b be bd 19 b2 03 3d 3d 35 ea bd 1f 75 35 3d
       -0.09279579 0.03215227 -0.11435936 0.04430115
0001c0 2e ed 91 bd 3b 5c 4c 3d 78 48 e1 3c 0f d0 4d 3d
       -0.071253166 0.049892645 0.027500376 0.05024725
0001d0 3b bd 76 bd 0b 98 32 3c d3 4a dd bd 2a 12 de bd
       -0.060239058 0.010900508 -0.10805287 -0.10843308
0001e0 41 aa 6e 3d 74 17 bf bc 0c f5 94 3c 73 a4 ab bc
       0.058267836 -0.023326613 0.018183254 -0.020952439
0001f0 cd da e0 bc fc 56 ba 3d db 96 f8 bd a4 3e 07 bd
       -0.027448082 0.09098622 -0.121381484 -0.033018723
000200 2d 9d 78 bd 6e 00 80 3d 8e 06 eb bc fb de 09 bd
       -0.06069677 0.06250082 -0.028689649 -0.033659916
000210 c6 41 b6 3d ef 51 05 3c ab fb be bc a5 4f ba 3b
       0.08899264 0.00813721 -0.023313364 0.005685764
000220 93 66 cd 3c f9 9b 22 3d ad 28 a9 bd 8a 98 a3 3c
       0.025073325 0.03969953 -0.082597114 0.019970197
000230 46 39 34 3c 4d 89 85 3d 7c 9c 52 3c fd 0c 98 bc
       0.010999983 0.06520329 0.012854692 -0.01856088
000240 6c 47 72 bd ac 2c d1 ba 1c 91 db bb f5 9e 80 3d
       -0.059150144 -0.0015958748 -0.006700648 0.06280319
000250 6d 53 50 bd 61 48 b3 bd 27 bb 8e bd 9c 4f 29 3d
       -0.05086081 -0.087540396 -0.0696929 0.041335687
000260 dc c9 0b bc 56 ca 29 3d a9 13 2c 3d 16 bc 04 3d
       -0.008532014 0.04145273 0.042010937 0.032405935
000270 47 44 50 3d 31 a1 bc 3c 50 39 64 3c 65 5d d8 bd
       0.050846364 0.02302608 0.01392968 -0.105646886
000280 88 bd 57 bd 7c de 68 3c d8 04 22 3d 32 5a b2 3d
       -0.052670985 0.014213201 0.0395554 0.0870861
000290 4e 4c de 3c 90 8d 51 bd 42 86 59 3a cf 1d ed 3b
       0.027135994 -0.051160395 0.0008297899 0.0072362195
0002a0 f8 04 70 3d f3 c2 86 bb 68 ef 1b 3d 43 85 2f bd
       0.05859849 -0.004112595 0.038070112 -0.042851698
0002b0 81 07 e9 bc 68 6a ca 3d e0 0c 12 bd 4f 3a b4 3d
       -0.028445961 0.09883577 -0.03565681 0.08800184
0002c0 f1 b6 34 bd 89 6b 69 3d fd 5c ad 3c 45 33 9e bd
       -0.04411978 0.05698732 0.021162504 -0.07724623
0002d0 66 2b 68 3c 75 32 23 3d cc d0 99 3d 7a a2 87 bd
       0.014170503 0.03984304 0.07510528 -0.06622787
0002e0 82 d6 8c 3d da bb a6 3d 40 38 a1 bc 75 99 11 3d
       0.068768516 0.081412986 -0.019680142 0.03554674
0002f0 31 43 e6 bc 70 77 d1 3d 31 35 37 3c de 90 29 3d
       -0.028108211 0.10227859 0.011182115 0.04139792
000300 5e cb 93 bd 9e f5 b5 bd d5 06 7e bc 0e 87 bf bb
       -0.072165236 -0.088847384 -0.015504559 -0.005844957
000310 68 c2 c1 3d 50 44 ad bd fa 1b 9b 3d c5 b4 88 bd
       0.09460908 -0.08460295 0.075736955 -0.06675104
000320 73 b8 eb bd 3b 66 0d bd 88 c5 1c 3d ae c2 46 3d
       -0.1150979 -0.034521323 0.038274318 0.048525505
000330 70 bb 89 3d dc 3f aa bd a9 48 b4 3d 26 4d 80 bd
       0.06725204 -0.083129615 0.08802921 -0.06264715
000340 ee e2 86 3d d3 9b b2 3d 83 dc 96 bc 8d ec 98 3d
       0.06586252 0.08721127 -0.018415695 0.074669935
000350 4f 34 3a 3d 9d 98 0b 3d 2f 30 7a bc 32 75 a4 3d
       0.04546004 0.03408109 -0.015270277 0.08030166
000360 0c 3f 45 bd d9 5a 1a 3c 6e 8f 89 3d 2e 89 30 bd
       -0.04815583 0.009421074 0.0671681 -0.043099575
000370 35 ee df 3d 42 67 7b 3d 36 4c ab bd bf 44 da 3c
       0.10934106 0.06137777 -0.083641455 0.026644109
000380 fa 1a 55 3d 05 c7 ae bd 62 27 81 3d af 8f 6b 3d
       0.05202768 -0.08534054 0.0630634 0.057510074
000390 7c 0e 01 3d 7e 2d bf 3d 65 85 d2 3d d0 07 f2 3b
       0.031507954 0.09334849 0.10279349 0.007386185
0003a0 96 f0 be bd 6b f2 96 bd dd f4 7a 3d f8 84 91 3d
       -0.09323232 -0.07370456 0.061268676 0.0710544
0003b0 ae 24 8a 3c f0 aa c2 3c df f3 05 3d 86 9b 1a bd
       0.016863193 0.02376315 0.032703277 -0.037745975
0003c0 33 29 b5 bc 93 8f 01 3d 73 31 c0 bc 70 db ca 3d
       -0.022114372 0.031631064 -0.02346108 0.09905136
0003d0 5d 29 b5 3c 7e ab 52 bd 02 48 63 3d ea 98 c9 3c
       0.02211445 -0.05143308 0.055488594 0.024609048
0003e0 84 b8 68 3d b8 bd 74 3d e4 aa c5 bd 74 4f 5d 3d
       0.056816593 0.059751242 -0.096517354 0.05403085
0003f0 38 45 d4 bc b9 f8 4b 3b f5 7f 8b bd 46 82 af bd
       -0.025911912 0.0031123592 -0.06811515 -0.085697696

lstm.weight_hh_l0 f4 [512, 128]
000000 b7 17 86 3d 84 27 ae bc f5 c8 2b bd 37 7b 06 ba
       0.06547492 -0.021259077 -0.041939694 -0.0005130055
000010 c2 e6 16 bd 59 ba 9a bd 0c aa eb 3c d0 8e 6d 3d
       -0.03684116 -0.07555074 0.028767608 0.057997525
000020 bd a5 ac 3c 98 81 8b bc 6c 50 48 3d 40 9a e5 bc
       0.021075124 -0.017029569 0.04890482 -0.028027654
000030 17 ce 7a bc 70 88 a5 3d 21 fd 88 3d 7c 92 97 3d
       -0.015307925 0.08082664 0.066889055 0.074009866
000040 7d 72 a6 bd 0e 55 eb 3c 1c e1 06 bc 20 e5 c3 3b
       -0.08127306 0.02872708 -0.008232381 0.0059782416
000050 14 cd a5 bd 2e 70 7a bd 4c 41 40 bd 68 b2 9c 3d
       -0.08095756 -0.06114214 -0.046937272 0.07651216
000060 a2 05 86 3c 47 37 15 3d da 38 f5 bc 7d db 0e 3d
       0.016360108 0.03642967 -0.029934336 0.03487729
000070 9d 58 cd bc 93 d6 ef bb 02 6f f3 3d e6 13 11 3d
       -0.025066668 -0.0073192804 0.118864074 0.035419367
000080 d6 49 47 3d ce 5b 8e bd ad e3 28 bd 8e dc f4 ba
       0.0486544 -0.06951104 -0.041232754 -0.0018681453
000090 bc 44 24 bd 79 a5 47 3c 9a 81 13 ba da ad d4 bb
       -0.040104613 0.012185448 -0.0005626917 -0.0064904513
0000a0 0c 8b a0 bd 3e 6c 2d 3d 2d ae d4 3d 01 34 13 3d
       -0.07839021 0.042339556 0.10384784 0.035938267
0000b0 d2 73 8f bd e7 8f 85 3d 65 28 13 3d 2f c6 b0 bb
       -0.07004513 0.06521588 0.035927195 -0.005394719
0000c0 5f ea 73 3d be ae 6b bd a1 ff 4d 3d 58 5b cb bd
       0.059549686 -0.057539694 0.050292615 -0.09929532
0000d0 c6 64 e4 bc f2 79 a7 bd c1 4e 79 bd 3c 16 14 3d
       -0.027880084 -0.08177556 -0.06086612 0.036154017
0000e0 fc 22 82 3d ee 3c 94 3c 4d c8 3a 3d e4 12 9d 3d
       0.06354329 0.01809546 0.045601178 0.07669619
0000f0 6d ac d5 3b 2a 86 34 bd d8 61 ae 3d 06 98 4c bd
       0.006520799 -0.04407326 0.08514756 -0.04994967
000100 13 bf 88 bd 14 68 a1 bd cb c2 45 3d 74 0c 8e 3c
       -0.066770695 -0.078811795 0.048281472 0.017339922
000110 88 9a 5b bd d3 dd 37 bd a2 16 13 bd 66 83 93 bd
       -0.05361417 -0.044889282 -0.035910256 -0.07202797
000120 c6 d3 8b bd 3f ff ae bc 34 16 f1 bc ad c9 fc 3a
       -0.06827502 -0.021361945 -0.029429533 0.0019286178
000130 ab a1 85 bd 58 e2 93 ba 75 70 8b 3d 1c 70 73 3b
       -0.06524976 -0.0011282666 0.06808559 0.003714568
000140 8a 87 98 3c 1d c5 69 3d 7b 39 a7 bd ee ea 12 bd
       0.018619318 0.057072747 -0.081652604 -0.035868578
000150 0a f9 4f 3c 9c 81 62 bd 4d bb f6 bc e5 7a 81 bd
       0.012693653 -0.055299386 -0.030118609 -0.063222684
000160 2d 43 b3 3d d2 07 a8 3c a7 cb fc bc 76 27 d3 bd
       0.08753047 0.020511542 -0.030858828 -0.10310261
000170 2a 7a 83 3d 42 b2 3e 3c 1f 12 fb bc 76 d9 37 b9
       0.06419785 0.01163918 -0.03064829 -0.0001753325
000180 0a 01 35 3d 24 b0 a5 bd dc a1 49 3b 47 d2 90 3d
       0.044190444 -0.08090237 0.0030766642 0.07071357
000190 c9 69 fe 3c b5 54 af bc 52 17 17 bd 60 c1 ab bd
       0.031056302 -0.021402696 -0.036887474 -0.08386493
0001a0 f3 c0 d7 bc ec 61 52 3d 3f 1f 3c bd 00 a6 94 3d
       -0.026337123 0.051362917 -0.045928236 0.072582245
0001b0 89 08 16 3b f4 2e d9 3d 0c 3a 8b bc 6b 90 01 3d
       0.002289327 0.10604659 -0.016995452 0.03163187
0001c0 db 83 21 bd 46 60 ab 3c 91 2a 7a 3d c5 86 46 3d
       -0.039432388 0.02091993 0.06107575 0.04846837
0001d0 d1 12 57 bd 8a de c2 bd f1 8b 48 bd 15 68 a6 bd
       -0.05250818 -0.09515102 -0.048961584 -0.08125321
0001e0 35 c1 41 bc c7 14 66 3d 61 19 9d 3b 0a be 5f 3d
       -0.011825849 0.05617216 0.004794285 0.054624595
0001f0 94 1d be bd d4 b9 98 3d 8a e6 2f bb 5c 66 05 3c
       -0.09282985 0.07457319 -0.0026840293 0.00814208
000200 b6 c2 6b bd 83 f4 b0 3d 9e 0d 8d 3d 9c 68 ab bd
       -0.057558738 0.08640387 0.06887363 -0.08369562
000210 c9 33 2c bd dd 27 66 bc dc ef c7 bc af 30 d3 bc
       -0.042041574 -0.01404759 -0.024406366 -0.02578005
000220 88 c4 7a 3b 09 57 19 bd 3a 3b 5e 3d 02 ba 27 bd
       0.0038264114 -0.03743652 0.0542557 -0.040948875
000230 2a ab 89 bd ce a8 d4 3c b0 90 6b bd e8 7e 5f 3d
       -0.067221 0.025959399 -0.05751103 0.054564387
000240 d9 96 27 3d c1 95 34 bd 51 66 87 bd 09 5d 68 3d
       0.040915344 -0.04408813 -0.06611312 0.05672935
000250 4e fc d6 bd c1 c3 65 3d c5 6a 6a bc b1 38 a4 bc
       -0.10497342 0.05609489 -0.014307682 -0.020046564
000260 a9 8d 6b bd 58 aa 4b 3b fb d5 9f 3d 75 00 41 bd
       -0.057508145 0.0031076875 0.078044854 -0.047119576
000270 42 82 7e bd f1 38 bc bd c4 a7 39 3d 22 9e a5 bd
       -0.062135942 -0.09190548 0.04532601 -0.08086802
000280 b6 19 54 bd aa 67 dd 3c d2 dd 97 3c 73 97 82 bd
       -0.051782332 0.02702697 0.01853839 -0.06376543
000290 4d 23 9a 3d ef be bb bd 4b 90 73 3d 7f 4e 2f 3d
       0.07526264 -0.09167277 0.05946378 0.04279947
0002a0 f4 60 2e bd 65 ee 55 bd e8 ac 33 bb 41 b3 10 3d
       -0.04257293 -0.052229304 -0.0027416293 0.0353272
0002b0 d4 d5 9c 3d 6f 63 8f bd b2 ef 68 bd f6 fc c8 bc
       0.07657972 -0.07001387 -0.056869216 -0.024534684
0002c0 16 2f 85 bd 25 d6 4f bc 11 b7 cb bc 81 d4 4a 3d
       -0.065031216 -0.012685333 -0.024867566 0.049519066
0002d0 ff 5c 0a 3d 88 07 a8 bc 0d 91 92 bd 92 db 42 bc
       0.033780094 -0.020511404 -0.071565725 -0.01189317
0002e0 1a 00 08 bd 75 4c 47 bd e8 28 2a 3d 0b 65 6a 3c
       -0.03320322 -0.0486569 0.041542917 0.014306317
0002f0 4d a9 44 bd 81 e8 07 bd d5 fa a3 3d 5a 7d ce 3c
       -0.04801302 -0.033180717 0.08006827 0.025206257
000300 3c 3c 78 3d 59 6b bc 3d 91 85 06 3d 40 67 34 3d
       0.06060432 0.092001624 0.032842223 0.04404378
000310 68 eb d9 bc df e7 8f 3d 2d 7c f6 3c 68 a1 9b bd
       -0.026601508 0.07026648 0.030088509 -0.07599145
000320 ff 5d 0a bc 20 de 09 3d b8 9c cc bb 51 8e 18 bd
       -0.008445262 0.0336591 -0.0062442683 -0.0372451
000330 1a 13 a4 3d b9 45 0a 3d 95 d8 e6 bc 83 d3 bc bd
       0.08011456 0.0337579 -0.028179446 -0.0922003
000340 0c b6 36 bd ac b6 1f bd 2c 80 6e bd d7 fd 6e bc
       -0.044607207 -0.03899257 -0.058227703 -0.014586887
000350 05 fb e8 3c 82 9f 90 3c 3b 53 b2 bc 2f 94 87 bd
       0.028440008 0.017654184 -0.021768203 -0.06620061
000360 2b f6 da 3b 67 11 aa 3d 77 4c aa 3d 1b 74 50 3d
       0.0066821775 0.083041005 0.08315366 0.050891977
000370 75 e2 a2 bc 6e eb 1f 3d e3 c4 99 3d 15 38 e9 bc
       -0.019883374 0.039042883 0.07508256 -0.028469125
000380 f1 71 35 3d d2 6b 8d 3d bd a9 71 3d 1d 05 b7 3d
       0.044298116 0.06905331 0.058999766 0.08936522
000390 d5 78 51 bc c4 91 91 bc a9 cb 92 3d 1e eb a2 bd
       -0.012785156 -0.017769702 0.07167751 -0.07955001
0003a0 71 02 9c 3d 10 84 77 bd bb 35 90 3d f2 09 b5 bd
       0.07617653 -0.06042868 0.07041498 -0.088397875
0003b0 17 f2 82 3d 86 b0 3d 3c 1e 81 a2 3c 56 8e 22 3d
       0.06393831 0.011577731 0.019836958 0.039686523
0003c0 10 4d a0 3c 12 2b 63 3d 81 8e 6b bd 71 97 0e bd
       0.019567996 0.055460997 -0.05750895 -0.034812395
0003d0 fa cb 32 bd d0 0d 47 bd 8b 0c 0f bd 29 df 78 bd
       -0.04365156 -0.048597157 -0.03492407 -0.060759697
0003e0 67 26 87 bd b7 b1 82 bd c6 75 15 3d 63 f1 ac 3d
       -0.065991215 -0.06381553 0.03648927 0.08444478
0003f0 1e 5d 8e 3d 87 3d 18 bd 4d 7f 38 bc 96 bb 82 bd
       0.069513544 -0.037168052 -0.01126082 -0.063834354

lstm.bias_ih_l0 f4 [512]
000000 d5 0c 1f 3c 86 82 24 3c f5 54 6a bd 18 a4 82 bd
       0.009707649 0.010040885 -0.057209928 -0.06378955
000010 cf a1 6e bd 17 14 fa 3c b2 b1 9d bd 2b e8 a4 3d
       -0.05825978 0.030527158 -0.07699908 0.08052095
000020 8f e8 2e bd 60 2d a6 bd 57 da 97 bd 16 8a 86 bc
       -0.042702254 -0.08114123 -0.07414692 -0.016423266
000030 52 d8 bb 3d f8 ec e3 3c 53 fb 36 3d 7e 54 64 bd
       0.09172119 0.027822956 0.044673275 -0.05574464
000040 33 03 b7 3a c1 a9 59 3d 92 73 27 bb 12 67 87 bd
       0.0013962745 0.053140406 -0.0025551063 -0.06611456
000050 8d 92 d5 3d 85 fc 93 bd af fd 64 bd f8 40 2f bd
       0.10428343 -0.07225899 -0.055905994 -0.04278657
000060 e0 3d 38 3d a8 62 06 3c 48 d1 cb 3d 30 8f c2 3b
       0.044980884 0.008202232 0.099520266 0.0059374794
000070 82 a2 54 bd 8a 62 4e 3d ac d7 9f 3d 92 0c 3c 3d
       -0.051912792 0.050386943 0.07804808 0.045910425
000080 db 45 86 bd 39 23 16 3d 96 a5 78 3c 29 b0 12 bd
       -0.065562926 0.036654685 0.0151761975 -0.03581253
000090 0e e5 78 3d 09 87 c9 3d 6d c5 8b 3d 4f fc 30 3d
       0.06076532 0.09840209 0.06824765 0.04320937
0000a0 4b 62 95 3c a7 a4 89 3d 17 8f 38 bb 60 05 8b 3d
       0.018235346 0.06720858 -0.002816146 0.067881346
0000b0 2b 15 59 3d c8 e5 62 3d 6c fe 92 bd 85 e8 3e 3d
       0.052998703 0.055394918 -0.07177433 0.046608467
0000c0 b1 d9 93 bd 15 3d 79 3d 17 1f ba 3d 08 fb 0b bd
       -0.07219256 0.060849268 0.09087961 -0.03417495
0000d0 ab 14 26 bd 6f f3 db 3d 0e 86 7c bd c8 78 9d bc
       -0.040547054 0.10739791 -0.061651282 -0.019222632
0000e0 96 c7 23 bd 62 a0 7a bc 7a f4 a7 bd b9 c4 45 3d
       -0.03998526 -0.015297027 -0.08200927 0.048283312
0000f0 af e6 87 3d 2d e3 df bc a5 b9 6f 3c fd 79 c1 3d
       0.06635796 -0.027330006 0.014631663 0.094470955
000100 4d df a5 3d 7e 43 bf 3d 6f 4d 23 3c e0 da e1 3c
       0.08099232 0.09339045 0.009967192 0.027570188
000110 68 1a cc bc 85 dc 67 bd 87 a5 cf 3b 1e 6a b4 bd
       -0.024914935 -0.05660679 0.006336871 -0.08809303
000120 b5 25 53 ba 93 72 b1 3c b2 58 61 3c 7d c0 bf 3c
       -0.000805463 0.021661079 0.013754057 0.023407215
000130 59 cb ab 3c 05 3a 90 3c 00 ee 46 bd 8c 9e 55 3d
       0.020970987 0.01760579 -0.04856682 0.052153155
000140 77 49 c9 bc 4d 3d 60 3d 12 b1 a8 3c d4 6f 54 3d
       -0.024571164 0.05474596 0.020592246 0.05186446
000150 90 81 af 3d 49 9b a4 bc 3c e5 5b 3d 20 f2 df bc
       0.08569634 -0.020093577 0.05368541 -0.027337134
000160 0a 7f c5 3c 75 5b ad bc a3 7d 87 bc 99 ba 96 bc
       0.024108429 -0.021161774 -0.0165394 -0.018399524
000170 66 c7 32 bd f3 80 23 3d b5 d2 8f 3d 39 1d 85 bd
       -0.043647192 0.039917897 0.07022611 -0.064997144
000180 9a 0f d4 3c 9a 7a 2f bd 31 82 c6 bd 74 6a d7 3c
       0.025886346 -0.04284153 -0.09692801 0.026295878
000190 7c 88 b0 bc cf aa 7b bc df 01 95 3c 69 4b 54 bd
       -0.021549456 -0.015360548 0.018189369 -0.05182973
0001a0 3e 14 26 3c 5a 9d b1 bd 8e b1 11 bd 29 75 94 bd
       0.010136662 -0.086725906 -0.03556972 -0.07248909
0001b0 8c 71 84 3b 93 17 7b 3d 0f 28 ef 3d 2c 7b 54 bd
       0.004041856 0.06130178 0.116775624 -0.05187528
0001c0 93 c2 4d 3c 3c 42 89 3d dd a5 10 bd 80 ac 76 bd
       0.012558597 0.06702086 -0.03531443 -0.060223103
0001d0 9a b2 92 3d 22 42 87 bd c6 00 3e 3d 98 e5 67 bd
       0.07162972 -0.06604411 0.046387456 -0.056615442
0001e0 16 05 0a 3d 63 ec 8f 3d e9 a7 a8 bd 40 14 19 bd
       0.033696257 0.07027509 -0.08235151 -0.037372828
0001f0 cf 05 75 bd ec de 81 3b b8 bc a1 3d 9e b1 90 bd
       -0.059819993 0.003963342 0.07897323 -0.07065128
000200 38 88 6f bc 64 91 09 bd 2c 8b b2 3d d6 ca 66 bd
       -0.014619879 -0.03358592 0.08717951 -0.056345783
000210 a8 08 96 3b b8 d1 bb bc f3 87 75 bc 8b e4 c4 bb
       0.0045786686 -0.02292715 -0.014986026 -0.0060086898
000220 e4 09 73 bd 49 59 31 bd e6 61 81 3d 8f f8 99 ba
       -0.059335604 -0.04329804 0.06317501 -0.001174705
000230 cd 78 e3 bc 91 af 5d bd ca e4 2c bd 1b 6b 9c 3d
       -0.027767563 -0.05412251 -0.042210378 0.07637616
000240 76 d3 3e bd 3c 9d 27 3d 49 db 8c bc a0 e2 14 3c
       -0.046588384 0.040921435 -0.017194407 0.009087235
000250 d9 76 db 3a af b1 36 3c 14 04 c9 3d 5b d2 c3 3c
       0.0016743793 0.0111507615 0.09815231 0.023904016
000260 1d a1 5b bd 99 a5 2a 3c c3 38 47 3d bd 23 71 bd
       -0.053620446 0.010415458 0.048638117 -0.058871973
000270 2e 61 b0 3c 0a 6d 5e bd 20 a6 3e 3d 4d d3 a1 3c
       0.021530714 -0.054303207 0.046545148 0.019754076
000280 42 83 07 bd c0 8b 60 bc 0d cf a2 bc 13 d1 7f 3d
       -0.03308416 -0.013705194 -0.01987412 0.062455248
000290 92 3f aa 3a f9 2e 91 bb 5e b7 98 3d fd 55 8f bc
       0.0012988916 -0.0044306484 0.074568495 -0.017497057
0002a0 a6 56 cd 3c 15 52 7f bc 80 bf 3c 3b 9e b3 3e 3d
       0.025065731 -0.015583535 0.0028800666 0.046558015
0002b0 59 e1 a2 3d 9f 3a 93 3d aa f8 7b bd df eb 5b 3d
       0.07953138 0.071889155 -0.06151644 0.05369174
0002c0 b1 0a a6 bd 5b cd 93 3d 88 24 13 bd 51 74 db bb
       -0.08107508 0.07216903 -0.03592351 -0.0066972156
0002d0 9b 06 50 3d 18 58 28 bd f0 5b bf 3d 29 d7 0e bb
       0.05078755 -0.041099638 0.093437076 -0.0021795726
0002e0 7b e9 9a bd af 10 2a bd 4d ac 08 3d 58 50 a9 3d
       -0.07564064 -0.041519817 0.033367444 0.082672775
0002f0 80 7f 38 bd d5 bc 15 3d 6f b4 34 3d c8 ed 2c bd
       -0.04504347 0.036557037 0.044117387 -0.042218953
000300 12 bd 30 bd 5b 50 89 3d ca 5d 40 bd 15 24 ea bc
       -0.04314906 0.0670478 -0.046964444 -0.028581658
000310 7f 3b 13 bd 95 f3 9a 3c 58 f3 bc 3a 36 e0 2b 3c
       -0.03594541 0.018914977 0.0014415784 0.010490468
000320 49 2a 8e bd 79 11 f3 3c cf ab 83 3c a7 16 b6 3d
       -0.06941659 0.029671418 0.016073136 0.08891039
000330 71 71 80 3d 58 11 43 bd 4b e1 19 bd 33 eb 6b bd
       0.06271637 -0.047623962 -0.03756837 -0.05759735
000340 d8 84 c6 3c 97 8a 6a 3d 0c bf af bc 37 c3 09 3d
       0.024233267 0.057261076 -0.021453403 0.033633437
000350 a8 1f 9f 3b cc 3f a3 bc 76 fb 11 3d 70 f0 5a 3d
       0.0048560686 -0.019927882 0.035640202 0.053451955
000360 4f c8 e7 bc e6 d5 9c bd 68 ad 34 bd 78 f3 46 bd
       -0.028293757 -0.076579854 -0.044110686 -0.048572034
000370 4c 7f b3 3d 40 1c 97 3c 0f 70 8b 3d 63 72 10 3c
       0.08764514 0.018446088 0.06808483 0.008816334
000380 71 7d de ba 65 80 a2 3c 4e ec b8 bd 39 55 a6 3d
       -0.001697464 0.019836614 -0.090294465 0.08121724
000390 9f c5 55 bd 79 69 45 bd 20 4b 03 bd d9 f3 b6 3c
       -0.05219042 -0.04819629 -0.032054067 0.022333072
0003a0 78 99 8d 3d 37 d3 c1 bd 1f bb 7d bd e1 da d7 bc
       0.069140375 -0.09464114 -0.06194603 -0.026349487
0003b0 50 d6 a7 3d cb 80 34 3d b6 d8 33 bd ba dd 38 3d
       0.08195174 0.04406814 -0.043907844 0.04513333
0003c0 b0 f9 d9 bd ff 02 67 bd 36 aa e0 3d 04 72 c1 bc
       -0.10643327 -0.05639934 0.10969965 -0.023613937
0003d0 4f e2 26 3c ca 2e 98 3d 76 f3 ed bc 5f 94 76 bd
       0.010185792 0.07430799 -0.029046755 -0.06020009
0003e0 7d a2 34 bc 93 50 54 bd 2a c2 2d 3b 2a 5d 98 bd
       -0.011025068 -0.051834654 0.0026513436 -0.07439645
0003f0 ab 64 9b bd 64 e2 14 bc d8 a0 2e bd c9 d5 90 3d
       -0.0758756 -0.009087179 -0.04263386 0.07072026

lstm.bias_hh_l0 f4 [512]
000000 a8 72 22 bd b6 7a 22 3c c3 f1 8e 3d d1 00 19 3c
       -0.039660126 0.009916952 0.06979706 0.009338574
000010 e8 cb 39 3d 3f d9 7b 3d bf ec 89 3c f3 d8 86 bd
       0.045360476 0.06148648 0.016836522 -0.065843485
000020 fa bb 03 ba 66 e0 1b bc 7c ac 5d 3d 98 64 92 bd
       -0.0005025264 -0.00951395 0.054119572 -0.07148093
000030 9b 86 40 bd 61 60 3a 3d bd fa 97 bd 8e 6e c7 3c
       -0.04700337 0.04550207 -0.074208714 0.024344709
000040 42 4a a9 3d 18 e3 34 bd 5b cd 84 3d 23 c1 69 bc
       0.08266117 -0.044161886 0.06484481 -0.014267239
000050 4e 10 ee bc f3 6d 75 bd 0a 00 65 3d ef 72 d7 bc
       -0.029060509 -0.05991931 0.05590824 -0.026299922
000060 b2 fd 07 bd 7f 79 d1 3d 3a 71 04 3d e6 cb fd 3c
       -0.033200927 0.10228252 0.032334544 0.030981015
000070 ee 03 9e bd 88 dc b5 3c 32 63 60 bd d7 af 8a 3d
       -0.07715593 0.022199884 -0.0547821 0.0677182
000080 46 f9 8c 3b 84 e3 23 bd ce 83 bb 3d 73 8a 3a bd
       0.0043021766 -0.040011898 0.09155999 -0.04554219
000090 fb 2f f8 bc f5 a2 cc 3d d3 d9 0d 3d f2 8c 43 3d
       -0.030296316 0.09992019 0.03463156 0.047741838
0000a0 e7 cd 77 3d 24 fb 71 3d 26 27 22 3c 1c 94 0d bd
       0.0604991 0.059077397 0.009897029 -0.034565076
0000b0 ed 9c a5 3c e0 98 49 3c d4 96 c3 3d 0c 62 6e 3d
       0.02021643 0.012304515 0.095502526 0.058198974
0000c0 ab 96 2f 3d b6 0a 0d 3d 5e d5 04 3d d9 3e 0d bd
       0.042868298 0.034434043 0.032430045 -0.034483764
0000d0 91 ce ad bc 73 34 11 bd 4a 87 9d 3d d2 88 6c 3d
       -0.021216663 -0.03545041 0.0769182 0.05774767
0000e0 57 ce 63 3c ad 13 c6 3d 71 45 78 3c 3f 8f 8e bc
       0.013904176 0.096717216 0.015153275 -0.01740229
0000f0 13 b3 6b bd 97 7b 0a 3d e4 7c 20 bd 28 eb 08 3d
       -0.057543825 0.03380927 -0.039181605 0.033427387
000100 44 13 89 bd a1 f9 61 3c 35 a8 3e 3d f1 a4 f4 3c
       -0.06693128 0.013792426 0.046547133 0.029863806
000110 b1 dc 4d 3d 6c de ab 3d 19 41 6d 3c 19 f5 00 3d
       0.050259296 0.08392033 0.0144808525 0.031483743
000120 77 a4 ba 3b bf ae b9 bc bc 8e ed bb 8a c9 f2 bc
       0.0056958753 -0.022666333 -0.0072496813 -0.029637117
000130 b0 3a dc 3c 8b 0f b5 bb 09 34 8e bc bc 79 6b 3d
       0.026883453 -0.0055255345 -0.017358797 0.05748914
000140 2c f0 46 3d 45 92 00 bd 6e 8e dd bc a6 a7 73 bd
       0.04856889 -0.031389493 -0.027045455 -0.059486054
000150 0b e2 2c bd 3b 2c 94 bd e3 e8 a0 3d 2e f6 9c bb
       -0.04220776 -0.07234999 0.078569196 -0.004790089
000160 51 4a 8c bd fb 65 b3 bc c7 c7 b5 3c 27 6f 55 bd
       -0.06850112 -0.021899214 0.022189988 -0.052107956
000170 c2 79 09 bd 53 dd 40 3c 2b 9e 2a 3d 61 87 88 bd
       -0.033563383 0.011771518 0.041654747 -0.066664465
000180 76 60 50 3d 4b b1 96 3d a5 23 ff 3c 1e 67 54 bd
       0.050873242 0.07358035 0.031144926 -0.051856153
000190 ad 58 c4 3d 48 ea 04 bd 4d b4 58 bd 91 59 31 bd
       0.09587226 -0.03244999 -0.052906323 -0.043298308
0001a0 65 63 8e bb d6 b1 6e 3d 2d fa b3 3d 77 09 f8 3b
       -0.004345345 0.058275066 0.087879516 0.0075694877
0001b0 d0 75 93 3d f5 d2 0a 3d 9c 6b d5 3d 0c ab 8f bd
       0.07200205 0.03389259 0.104209155 -0.070150465
0001c0 8d b2 b0 3c 30 e5 34 bd eb a0 4a 3d db 87 53 bd
       0.021569515 -0.044163883 0.04946987 -0.051643234
0001d0 95 30 4c bd 8b 95 33 3d fa af 49 3d 7b c9 87 bd
       -0.04985102 0.043843787 0.04924009 -0.06630226
0001e0 3c f3 45 bc 77 07 c4 3d 86 28 a2 3d b4 1f 51 3d
       -0.012081917 0.09571736 0.079178855 0.051055625
0001f0 0f 1b 8d bd 33 e1 e8 bc 4f c8 87 3d 29 3f 8f bd
       -0.06889927 -0.028427696 0.06630003 -0.06994469
000200 07 fb de bb 05 98 91 bd 8e ba 9d 3d 14 f9 bb 3b
       -0.006804827 -0.071090735 0.07701598 0.0057364795
000210 3e c9 1e 3d 8e 45 a6 bb f6 7c 70 bd 32 b8 6e bd
       0.03876614 -0.0050742095 -0.058712922 -0.05828113
000220 5f b4 34 bd 0b b0 ad 3c bd 2f 3d bd 9d 69 8c 3c
       -0.044117328 0.021202108 -0.046188105 0.017140204
000230 6d ec c0 bc e0 54 9d bd 08 94 54 bd 71 14 8b 3d
       -0.023550237 -0.07682204 -0.051898986 0.06791008
000240 3b 5d 59 3d f0 f8 d0 3b ca 7c 18 bd 3c 95 c5 bc
       0.053067427 0.006377332 -0.037228383 -0.024119012
000250 ea 9c 2e 3d b8 98 89 bd cb 8c ab bc bb ef 1a bd
       0.042630114 -0.06718582 -0.020941159 -0.03782628
000260 b1 5d d5 3b 00 e5 40 bd 1c 17 a2 3d 7b e4 93 bd
       0.006511413 -0.04709339 0.07914564 -0.072213136
000270 bc bf c2 bd 50 c0 eb 3c ae b1 87 3d b6 16 53 3c
       -0.09509227 0.028778225 0.066256866 0.012883833
000280 cf c3 bf bc 1d 8b 88 bd 42 e4 c1 3c ad cc 1d 3d
       -0.023408799 -0.06667159 0.023668412 0.038525272
000290 27 92 83 bd 91 86 e5 bc a8 4f ab 3c ad 9e 7e 3d
       -0.06424361 -0.028018268 0.020912006 0.062163044
0002a0 c7 77 c5 3d bf ba 37 bd 51 6b 1f 3d 2f 44 c2 bc
       0.09641986 -0.04485583 0.038920704 -0.023714153
0002b0 42 8a 51 bd 1a 1e 8a 3c 63 23 de 3c 74 77 1d bd
       -0.051157244 0.016860057 0.027116483 -0.038443998
0002c0 d7 89 89 3a e2 a6 ef 3c 92 ad 50 3d a5 74 82 bd
       0.001049335 0.02925438 0.05094678 -0.063699044
0002d0 8b 44 c9 bc 7a 84 ec 3d 70 53 a0 3d 3f 89 8a bc
       -0.024568817 0.115487054 0.078284144 -0.016911147
0002e0 b6 f2 13 3d 89 0d fd bc c1 b5 a3 bd 92 cb 78 bd
       0.03612014 -0.030890243 -0.07993651 -0.060741015
0002f0 86 46 cb bc 46 2c ee 3c 4d dc 6e 3d c1 40 89 bd
       -0.024813902 0.029073846 0.058315564 -0.06701804
000300 3d e7 a9 bd 85 8d 90 bd 66 ae 8f bd 16 ca a3 bd
       -0.08296058 -0.07058243 -0.07015686 -0.07997529
000310 80 9b 73 bd fd 2b 5c 3d 0b 35 9a 3c dc 07 07 bc
       -0.05947447 0.053752888 0.018824121 -0.00824162
000320 e2 2e 76 bd fb ff 8e bb 67 61 a5 3c 65 8a 97 bc
       -0.060103305 -0.0043640113 0.020188047 -0.018498609
000330 33 84 1a 3d 5c 6e 9f 3c 4d d6 ae 3d 2a da 9a 3d
       0.03772373 0.019461803 0.085369684 0.07561143
000340 fc be b2 3d ba 00 b3 bc 2e e9 3a 3d 53 26 65 bd
       0.08727834 -0.021850932 0.045632534 -0.055944752
000350 02 04 9c bd ad 0c 4d bc cd fa 17 3d 45 ac 6f 3d
       -0.07617952 -0.012515229 0.037104417 0.0585139
000360 19 9c fa bb 96 dc 1d bc 4e a4 ba 3c 3c ad e1 3c
       -0.007648003 -0.009635111 0.022783425 0.027548425
000370 6c 97 ac 3d fd c2 0f 3a f6 75 69 bd 3d b3 4d 3d
       0.08427319 0.00054840726 -0.056997262 0.050219763
000380 e7 e8 a7 3d 74 e8 3c bb 57 0b 10 3d 14 ae 2e bd
       0.081987195 -0.0028825076 0.035167065 -0.042646483
000390 e3 a7 21 bd 6c b4 c5 bb 47 97 42 bd b3 55 aa 3d
       -0.03946675 -0.006033471 -0.04750755 0.08317127
0003a0 4d e9 54 bd 36 ea 0e bd 33 d8 e9 3c 05 99 8a 3d
       -0.051980305 -0.03489133 0.028545475 0.067674674
0003b0 14 87 88 bd 33 8e 0e 3d 47 14 ba 3d 49 9b 9b 3d
       -0.06666389 0.03480358 0.09085899 0.07597978
0003c0 00 a3 b5 bc d7 26 b2 bb a9 12 6f 3c ea d1 a2 3c
       -0.022172451 -0.005436759 0.014591851 0.019875485
0003d0 c9 49 70 bd ae 02 b9 3c 63 b9 96 3d 9c 33 3f bd
       -0.058664117 0.022584286 0.073595785 -0.046680078
0003e0 50 71 2c 3c e1 54 74 bc c1 f9 ac 3d 84 a4 29 3d
       0.010525063 -0.014912815 0.08446074 0.04141666
0003f0 76 db ae 3c 5d 9f 5a 3c fe 7e 25 bd 50 6f 5b 3d
       0.021344882 0.013343659 -0.040404312 0.053572953

lstm.weight_ih_l1 f4 [512, 128]
000000 b9 f4 c5 bc 51 35 3a bc 76 5e 90 bd 1c 8a 1c bc
       -0.024164544 -0.011365251 -0.07049267 -0.009554412
000010 6c e1 25 bc 84 4f 9e 3a 00 d6 cc bc 6c 1b 67 3a
       -0.010124546 0.0012078141 -0.025004387 0.0008816037
000020 7d df 61 3d 26 05 7e bd b0 58 8f bd 6c eb 19 bb
       0.055144776 -0.06201663 -0.06999338 -0.002348627
000030 2c 78 7e bd af d0 93 bd b8 46 3b bd 45 46 f3 bc
       -0.062126324 -0.072175376 -0.04572174 -0.029696593
000040 96 2b b0 3d 67 1b 92 bd 2b c7 a1 bc 34 c6 97 bc
       0.08602063 -0.07134133 -0.019748291 -0.018527128
000050 1f b1 1b 3d 9a 67 a1 bd 4f fe aa 3d 1b d4 a6 39
       0.038010713 -0.078810886 0.08349287 0.00031820018
000060 fd c7 91 3c c0 e3 79 bb 7f 45 55 3d 1e dd 4d 3d
       0.017795557 -0.0038130134 0.05206823 0.050259702
000070 cb e4 88 3d 79 d7 6e bd 67 ce fa bc 32 69 3c 3d
       0.06684264 -0.05831096 -0.030615998 0.04599876
000080 11 2e a1 bd 90 b2 11 bd b0 55 f2 3d a9 48 7d 3d
       -0.078701146 -0.03557068 0.1183275 0.061836872
000090 61 40 4b 3d ec 8a 8e bd b3 aa c5 bd 44 12 fc bb
       0.049621943 -0.06960091 -0.09651699 -0.007692607
0000a0 3b 8e e0 3c 47 75 b0 bd cb e5 0b 3a 19 33 aa 3d
       0.02741157 -0.08616119 0.0005336671 0.08310527
0000b0 b1 8b 6d 3d ed cf 97 bd e5 a3 b9 3c 40 1f 4b bd
       0.05799455 -0.074127056 0.022661159 -0.04959035
0000c0 da 61 a4 bd 78 d0 c3 bc b3 a3 2c 3d 13 ea 10 bd
       -0.08026476 -0.023903117 0.042148303 -0.03537948
0000d0 3f 54 36 bc 77 ff 51 bd ab 95 31 3d 90 ce 51 3c
       -0.011128484 -0.05126902 0.043355625 0.012805596
0000e0 ff 50 2f bc a5 8f 41 bd df 48 88 bd 85 22 44 bd
       -0.010700463 -0.04725613 -0.06654524 -0.047884483
0000f0 6d 90 61 bd a7 cd b4 3d 4b 4e b6 3d 30 0c 01 bd
       -0.055069376 0.088282876 0.08901652 -0.031505764
000100 a8 98 54 bd 8a a9 80 bd 14 83 9b 3c f0 c7 a4 3c
       -0.051903397 -0.06282337 0.018983401 0.020114869
000110 1d 0f 76 3d 22 77 a1 3d 0b f9 b5 3d 16 be 24 3d
       0.060073007 0.07884051 0.08885392 0.040220343
000120 ed d4 7e 3c 3d a1 b2 3c 96 62 07 3b 81 55 9a 3c
       0.015553695 0.0218054 0.0020658127 0.0188396
000130 0b c6 9e bc 45 80 b0 3d ff 8f b7 3d c3 cc 31 3d
       -0.019381544 0.086182155 0.08963012 0.043408167
000140 3a a7 fe bc 39 4c af 3c af ef 55 3c 45 1a f1 3a
       -0.0310856 0.02139865 0.013057633 0.001839467
000150 86 99 8b 3d a9 9d 32 bd 5f 91 89 bc ab 5d 23 bd
       0.06816392 -0.043607388 -0.016792951 -0.03988425
000160 24 95 b6 bd f4 c8 53 3c c1 85 8e 3d 27 52 4c bd
       -0.08915165 0.012926329 0.06959105 -0.049883034
000170 51 f1 aa 3d 1c 0e e9 bb c8 91 9e bd 9b 10 00 bd
       0.08346809 -0.0071122777 -0.07742649 -0.031265836
000180 a0 06 41 3d 3d ee 8e bc 63 d2 80 3d d2 d7 11 bd
       0.04712546 -0.017447585 0.06290128 -0.035606213
000190 ef f8 d5 bc 77 fc 0b 3d 18 2e 98 bb c5 53 21 bd
       -0.026119677 0.034176316 -0.0046441667 -0.03938653
0001a0 57 6c 73 3d b3 45 0b bd a3 aa 44 bd c8 cf 11 bd
       0.059429493 -0.034002017 -0.048014294 -0.035598546
0001b0 76 e7 e1 bd 69 be 55 bd f9 86 35 3c 58 0f 7d 3d
       -0.11030476 -0.052183542 0.011079543 0.06178221
0001c0 5a 99 9f 3d 1e b5 bc 3d 72 95 43 3d 46 ee c2 bc
       0.07792921 0.09214233 0.047749944 -0.023795258
0001d0 f0 61 69 3d d1 e6 9e bd 4d 42 65 3b 11 4b d4 bc
       0.056978166 -0.077588685 0.0034982145 -0.0259147
0001e0 f7 7e a7 bd 8a bf 8b 3d f3 b5 f6 3c d3 a0 75 3d
       -0.081785135 0.068236426 0.030116057 0.059967827
0001f0 fc 1e 7e bd 87 90 5f 3d 4c c6 5a 3d 22 d6 14 bd
       -0.062041268 0.05458119 0.053411767 -0.036337025
000200 42 da 70 bd 15 3f 7a bd 2c db e3 3c 3b 36 51 3d
       -0.058801897 -0.061095316 0.02781447 0.05107711
000210 ee c2 cb bc eb 81 23 3d 4b a5 54 bd b4 3c 32 bd
       -0.024873223 0.03991882 -0.05191545 -0.043514922
000220 c0 49 93 3d 9f 58 ae bd e9 c4 19 3d 89 dd c9 bd
       0.07191801 -0.08512997 0.037541304 -0.098567076
000230 1a 3a 8f 3d 37 56 cd bb 44 5f 3a bd a5 36 44 bd
       0.06993504 -0.006266381 -0.04550101 -0.047903676
000240 92 44 b1 3c f8 bc 42 3d 65 02 c3 3a fb 69 95 3c
       0.021639142 0.047543496 0.0014878033 0.018239012
000250 3e 48 aa 3d 8a 35 30 3d df d3 1a bd fc 07 03 bd
       0.0831456 0.04301981 -0.037799712 -0.031990036
000260 e1 a5 72 3c 85 6e 21 3d e0 21 9f 3b 84 b8 6b bc
       0.014810056 0.03941204 0.004856333 -0.014387254
000270 0d 9d 8e bc 44 5e 90 bd 8d 6d 9a 3d cf 90 81 3d
       -0.017408872 -0.0704923 0.075404264 0.06326448
000280 97 91 6a 3d ee ac 06 bd 2f f7 85 bc a1 48 20 3d
       0.05726775 -0.032879762 -0.016353218 0.039131764
000290 89 ea 84 3d 2f 10 9a bd c3 ad e6 bc 7e 9d 79 3c
       0.064900465 -0.07522618 -0.028159028 0.015235303
0002a0 40 6c d8 bb cb 32 27 bd 97 7f a8 3d 26 54 a8 3d
       -0.0066047013 -0.040819924 0.08227461 0.08219175
0002b0 2a 4e 80 bd 5c 08 02 bd 60 7c 86 bc ef 2b 7b bc
       -0.062649086 -0.031746253 -0.016416728 -0.015330299
0002c0 13 93 6a 3d db 6c 5c bd 52 2b 8a bd 67 1a bd bd
       0.057269167 -0.05381475 -0.06746544 -0.092335515
0002d0 82 15 15 3c 21 cc 12 3c b3 8c e7 bc 4a 67 22 bd
       0.009099366 0.008959801 -0.028265333 -0.039649285
0002e0 2d 73 b2 3c 80 4f c6 3c 95 cc 01 bd 2f a0 98 bd
       0.021783436 0.02420783 -0.031689245 -0.074524276
0002f0 68 55 61 bd ad ea 7e 3b f4 07 8d 3b a3 58 27 3d
       -0.05501309 0.0038897202 0.0043039266 0.040856015
000300 f3 3d 45 bd 88 c7 8b 3d 08 dd 41 bd 99 59 34 bc
       -0.048154783 0.06825167 -0.047329932 -0.01100769
000310 07 df a4 bd 74 70 c6 3c ce 4d 81 bd 41 7b 7f bc
       -0.080503516 0.024223544 -0.06313668 -0.015593351
000320 a1 43 97 bd 78 cb 97 3c 6b 85 24 bd ce 85 ef 3c
       -0.07385946 0.018529639 -0.0401663 0.029238608
000330 8e 27 b4 3c 5e 0e 90 bd f1 dc fa bb 21 ad a1 bd
       0.021991517 -0.0703399 -0.007655733 -0.0789435
000340 2e 0e 43 3d 2d 0f bf 3d 0d b6 68 bc aa 26 21 bd
       0.047620945 0.093290664 -0.014203561 -0.039343514
000350 ff 44 29 3c 3f 59 8c 3c 00 fb 48 3d 6b a0 84 bb
       0.010331391 0.0171324 0.049067497 -0.0040474436
000360 79 01 a2 3d 7d 6f c0 bb 2e be b4 bd f4 47 0c bd
       0.07910437 -0.0058726654 -0.088253364 -0.034248307
000370 1b 15 a9 bd 4c 63 a7 bd af 9f 78 bb 33 ab d2 bc
       -0.08255979 -0.08173236 -0.0037936976 -0.0257164
000380 b2 c9 32 bb 16 22 b0 3d 54 84 2b bd 7d 0d 20 3d
       -0.0027280864 0.086002514 -0.041874245 0.039075363
000390 f0 b3 80 3d 15 81 e8 3c b0 2f 05 3d d9 94 8d bd
       0.0628432 0.028381864 0.03251618 -0.06913156
0003a0 0a 3f 73 3d 6b 66 9b 3c ed e5 c9 bb 4f e9 58 3d
       0.05938629 0.018969735 -0.0061614425 0.052956875
0003b0 cb 99 b2 bd dc cd c6 bc 8d f0 c4 bb 09 35 5a 39
       -0.0872074 -0.024268083 -0.006010121 0.00020809857
0003c0 52 10 bf bd 37 e4 ae bd 31 c1 4b 3d 13 36 ad bd
       -0.09329285 -0.08539622 0.04974479 -0.084575795
0003d0 30 92 4b 3d 3a 3b 43 3c 42 b9 84 bd aa d0 28 3c
       0.049699962 0.011915976 -0.064806476 0.010303656
0003e0 4d 91 80 3d c2 89 15 3d 0b c8 2e bd f7 fc 67 3d
       0.06277714 0.03650833 -0.042671245 0.05663773
0003f0 dd 81 b5 bd b2 fd 0a bd 80 59 87 bd a2 4f f6 bc
       -0.0886266 -0.03393335 -0.06608868 -0.030067269

lstm.weight_hh_l1 f4 [512, 128]
000000 98 80 1b 3d 7c 39 29 3d 0b 22 80 bd e1 9b fc bb
       0.037964433 0.041314587 -0.06256493 -0.007709012
000010 68 10 8e bd 3e 5e 17 3d ab 4b 58 bc 0e 98 8d bc
       -0.06936723 0.03695511 -0.013201634 -0.01728442
000020 96 91 ba bb ca 92 17 bc f3 55 5d 3d ba a0 f2 bc
       -0.0056936247 -0.009251306 0.054037046 -0.029617656
000030 7b 8b 39 bd 3e 21 f1 bc da 98 25 3d e3 aa ac bb
       -0.045299035 -0.029434796 0.040428974 -0.0052693947
000040 c9 37 bd bc 0a cd a9 bc d0 3c 91 3d c8 3b 76 3c
       -0.02309789 -0.020727653 0.07091677 0.015028901
000050 fe e0 2d 3a f2 21 d7 3b fd 66 32 bd 1f 46 b0 bb
       0.0006632953 0.006565326 -0.04355525 -0.005379453
000060 2a 97 b3 bd 89 85 08 bd 3c 45 12 3d 7c cc e3 3c
       -0.08769067 -0.033330474 0.03571056 0.027807467
000070 0c 20 a1 bd 31 e5 a8 bd 62 31 b0 3b df f5 8d bd
       -0.078674406 -0.0824684 0.0053769806 -0.06931662
000080 b0 54 b4 bc 5f f8 1f bc 01 f1 bd 3d 30 94 93 bc
       -0.022013038 -0.009763806 0.092744835 -0.018014997
000090 1a c3 44 3d 4d e8 89 3d 1b 78 dd bc 21 c7 fa 3c
       0.048037626 0.06733761 -0.02703481 0.03061253
0000a0 b0 52 26 bc cd 56 06 3c ad 37 4e 3d 34 e7 b5 3c
       -0.01015155 0.008199406 0.050346065 0.022204973
0000b0 a1 0d 54 3d f0 83 8c bd c0 49 48 bd c6 bd 89 3d
       0.05177081 -0.068611026 -0.04889846 0.067256495
0000c0 b8 8f e1 39 e9 ff bf bc 84 53 d5 3b 8b ea 73 3d
       0.00043022423 -0.023437457 0.0065102 0.05954985
0000d0 5e 21 8e bd 20 86 8e 3d 47 45 9b 3c 01 4f 50 3c
       -0.06939958 0.06959176 0.018953932 0.0127141485
0000e0 df 10 77 3c 55 dd 81 bc ee ff 7b bd a9 31 1b bd
       0.015079706 -0.01585261 -0.06152337 -0.037889156
0000f0 1d 6b 45 bc 51 f4 a9 3d 0d da 6f 3d ed fc 24 3b
       -0.012049464 0.08298553 0.05855756 0.002517517
000100 2b af 7b 3d 90 fe 51 bd 30 9c a0 bd 80 d6 2f bd
       0.06144635 -0.05126816 -0.078422904 -0.042929173
000110 98 b3 29 3d a9 2e 34 bc 70 25 5f bd e9 3a 9f bd
       0.04143104 -0.010997453 -0.054479063 -0.07774908
000120 1a bc ac bc 9c f3 17 3d b8 7d 44 3d 30 98 a1 3d
       -0.021085788 0.03709756 0.047971457 0.078903556
000130 24 93 f2 bc a2 47 32 bd 35 8b 3e bd b8 b5 23 bc
       -0.029611178 -0.043525346 -0.046519477 -0.009992056
000140 16 5b 9c 3c 02 df 7d 3c 41 76 b3 bd c1 18 5d bc
       0.019086402 0.015495064 -0.087627895 -0.013494671
000150 04 95 8f bd 3a 65 22 bd d3 23 fe 3b cf bb b3 3d
       -0.07010844 -0.03964732 0.0077557354 0.08776056
000160 9e ae d0 bc 47 7d 1a 3d 5b 25 2c 3d 64 c5 21 3d
       -0.025473889 0.03771713 0.042027812 0.039494887
000170 42 80 74 bd 2f ce 42 3d c9 b5 b0 3c 9d 24 b0 bd
       -0.05969263 0.047559913 0.021571057 -0.086007334
000180 9b 19 06 bc 38 ea 68 bd c0 de 92 bd 14 71 b6 3c
       -0.008184816 -0.056863993 -0.071713924 0.022270717
000190 44 31 37 3d 21 d3 33 bc ed 07 25 bd 4d 4b 0b bd
       0.044724718 -0.01097563 -0.04029076 -0.03400736
0001a0 95 b9 b0 3d be 2b ae bc 4c f1 a1 3d 33 de 48 bd
       0.08629147 -0.021261092 0.07907352 -0.04904003
0001b0 58 3b 87 3d 04 bd 0a bd 1b 72 de bc a1 5d ed 3c
       0.06603116 -0.033871666 -0.02715402 0.02897531
0001c0 32 b2 32 bd 01 33 8e bd 23 bd f4 bc 15 9e d6 bb
       -0.04362697 -0.06943322 -0.029875344 -0.0065496066
0001d0 67 97 83 bc 62 61 4d 3d 44 da 1f 3d cf c4 49 bd
       -0.016063405 0.0501417 0.039026514 -0.049259957
0001e0 f2 4f 71 bd 7e cc 78 3c d5 2d 6d 3d 01 34 b1 3c
       -0.058914132 0.0151854735 0.057905037 0.021631243
0001f0 f9 3d 5b 3c 59 8d e3 3c 3f 0d a0 3c 02 44 0f bd
       0.013381475 0.02777736 0.019537566 -0.034976967
000200 ff 5d 2f 3d de 97 f6 bb 17 19 dc bc 0c e7 61 3d
       0.04281425 -0.007525428 -0.026867433 0.055151984
000210 32 6f 0f bd 3b f1 33 bd 20 12 90 3d 80 f5 63 3d
       -0.035018153 -0.043931227 0.07034707 0.05565405
000220 ba f6 c2 bd 3c 3e 1b 3d 13 21 ab 3b d4 42 9d 3d
       -0.095197156 0.03790115 0.0052224486 0.07678762
000230 87 5f ce bc d2 97 ab 3d ed b9 30 3c 52 b3 74 bc
       -0.025192035 0.08378567 0.010786516 -0.014935331
000240 6c 1a 9b bd 43 0b 7a bd b7 96 88 bd 96 e9 75 3d
       -0.07573399 -0.061045896 -0.066693716 0.060037218
000250 9d 47 a4 3d 13 1f a4 bb 0d 91 98 3d 54 9e 67 bc
       0.08021472 -0.005008587 0.07449541 -0.014136869
000260 b1 9e f2 bc 23 21 54 3c 5b c8 e4 bc 88 72 92 3d
       -0.029616686 0.012947354 -0.027927568 0.07150751
000270 d4 62 3d 3d 14 db ab bd 2c 2c 89 3b ef f5 1a 3d
       0.046236828 -0.08391395 0.004186174 0.037832197
000280 6a b4 5a bd d5 eb 1a 3d bd 84 17 bd 21 28 7c bd
       -0.053394713 0.037822563 -0.036991823 -0.061561707
000290 2e 85 97 3c 2c fb 26 3d 6f 18 c6 3c 45 aa 1e 3d
       0.018496122 0.04076688 0.024181573 0.0387366
0002a0 e3 37 c8 bc 2e 0e a8 bd fd 4c 92 3c d7 ea 76 3d
       -0.024440711 -0.082058296 0.017858976 0.060282554
0002b0 2e 57 5a bd 7b bf 42 3c f9 7e 90 3d 08 46 5a 3d
       -0.053305797 0.011886473 0.07055468 0.053289443
0002c0 54 78 0b 3c b1 4e 9e bd e1 6d 09 3d 88 33 09 bd
       0.008512575 -0.07729853 0.033552054 -0.03349641
0002d0 64 b3 8b bd 1d a0 83 bc 34 47 64 3d 52 62 e4 bc
       -0.068213254 -0.016067559 0.055731967 -0.027878914
0002e0 c8 3b 89 3d 61 64 ac 3c a5 a3 ca 3d 5d 69 a4 bd
       0.067008555 0.021043958 0.09894494 -0.08027909
0002f0 2e 2c 25 bd a8 6c 62 3d e1 b8 a8 3d 5d c8 02 bd
       -0.040325336 0.055279404 0.08238388 -0.031929363
000300 9a 1c 3d 3c 54 7e 9c bc c9 1d 0b bd 29 b1 ac bb
       0.011542464 -0.019103207 -0.033963952 -0.0052701426
000310 b8 64 81 bb b1 6f 61 bd 36 09 33 bc 44 22 1a bd
       -0.003948774 -0.055038158 -0.010927489 -0.037630334
000320 e5 ef 09 3d d9 27 88 3d 78 5c 93 bd 52 54 8e 3b
       0.033676047 0.06648225 -0.071953714 0.004343548
000330 b6 5f 99 bc a5 55 93 bd 4f 65 fb bc 71 2a 94 3c
       -0.018722396 -0.0719407 -0.030687956 0.018086644
000340 e0 af 96 bd 35 ae 9e bd 98 a2 ae 3d 15 4d 86 bd
       -0.07357764 -0.07748071 0.08527106 -0.06557671
000350 bc 1f ae bd 94 a2 1b 3d 37 9f 6a bd 65 80 a3 3b
       -0.085021466 0.037996843 -0.057280745 0.004989671
000360 12 18 7f 3d be 22 5b 3d 26 d9 a0 bd cb ae d5 bc
       0.062278815 0.05349993 -0.07853918 -0.026084324
000370 f0 e4 6f 3d f7 ca a2 bd b6 8a d3 bc 02 b1 25 3d
       0.05856794 -0.07948869 -0.025822978 0.04045201
000380 bb dd 53 bd 99 a7 ac bb bd 22 b5 3d 05 7d 5c bd
       -0.05172513 -0.0052690026 0.088445164 -0.053830165
000390 78 e8 06 3d 4f f1 02 bd 31 8e 6a 3d 5f d3 85 3d
       0.032936543 -0.03196841 0.05726451 0.065344565
0003a0 8d 08 0b bd 0e e2 2e 3d ef 59 54 3d 91 57 9c bd
       -0.0339437 0.04269605 0.05184358 -0.076338895
0003b0 ad 40 5a 3d bc c9 47 3d 20 73 68 bd a1 6d ad bc
       0.053284336 0.048776373 -0.056750417 -0.02117044
0003c0 a0 60 47 3d be 42 3b bd c5 dd 65 3c cd 1f 10 3d
       0.048676133 -0.045717947 0.014029925 0.035186578
0003d0 7a 0a 9c bd 60 13 b3 b9 b1 90 b4 3d 7e 6d 9f 3d
       -0.07619186 -0.00034155976 0.0881666 0.07784556
0003e0 13 c0 7c 3d 86 9c 90 3d b6 c9 9f bd b6 fb 1c 3d
       0.061706614 0.070611045 -0.07802145 0.038325988
0003f0 e3 c4 64 3d e4 6c 06 bd c2 ab 92 bd 6e 8f 85 bd
       0.05585183 -0.03281869 -0.071616665 -0.06521498

lstm.bias_ih_l1 f4 [512]
000000 c5 81 a3 bd b5 13 57 bd 16 61 0d bd 0f a5 37 3d
       -0.07983736 -0.05250903 -0.034516416 0.044835147
000010 19 33 a9 bd 1d 83 cb bc 08 a5 9e 3d 09 6c d1 bd
       -0.08261699 -0.024842793 0.07746321 -0.10225684
000020 d3 a3 93 bd a0 b7 89 bc 4a 4d 7b bb 55 e5 a2 3c
       -0.07208981 -0.016811192 -0.0038345628 0.019884745
000030 16 37 ad 3d 56 2a 8a bd 56 78 60 3d 68 c2 ce 3d
       0.084577724 -0.06746356 0.05480226 0.10095674
000040 95 73 c2 3c 36 fa 84 3d 04 77 63 bc 51 b5 08 bd
       0.023736754 0.064930364 -0.013883356 -0.03337604
000050 6f ed 75 bd 81 38 96 bd 9c 6a 8c 3d 87 0a ab bd
       -0.060040887 -0.07334996 0.068562716 -0.08351617
000060 ec ef 73 3d 56 17 88 ba 41 82 f5 3b bd e1 a4 bc
       0.05955498 -0.0010382931 0.007492334 -0.020127172
000070 88 cd 16 3d f7 b8 d0 3a c5 ed d4 3c 6e de 50 bd
       0.036817104 0.0015924264 0.025992284 -0.050993375
000080 79 cb 70 3d 18 be 8c 3d b7 fa 5e bd 04 ab 15 bd
       0.058787797 0.06872195 -0.05443832 -0.036540046
000090 b8 41 03 bd 91 b4 82 bd 95 c4 14 bd 9f 96 7d 3d
       -0.032045096 -0.063820966 -0.036320288 0.06191122
0000a0 7d f2 23 3d e7 d7 4b 3d 83 28 a9 bb 1f 28 87 bd
       0.040026177 0.049766447 -0.0051623 -0.06599449
0000b0 84 47 31 bd e6 57 00 bd 72 e8 9a bd 4a 04 64 3b
       -0.043281093 -0.031333826 -0.07563867 0.0034792596
0000c0 68 04 bb bd d2 ba b1 3d 54 44 98 bd ca f2 af bd
       -0.091317 0.08678211 -0.074349076 -0.0859123
0000d0 af 17 73 bc e8 3b 93 bd d4 8c f4 bc e3 8f b1 bd
       -0.01483719 -0.071891606 -0.029852308 -0.08670022
0000e0 04 0d 9b 3d 8e ae 82 39 c9 c1 2d bd 75 d4 92 3d
       0.07570842 0.00024925586 -0.042421136 0.07169429
0000f0 04 4a ad bd 41 7b 54 3b 6d 23 31 bd 01 81 9d bd
       -0.08461383 0.0032422098 -0.043246675 -0.07690621
000100 45 33 ac 3d 13 ff 57 3d c5 54 27 3d 89 23 96 bd
       0.084082164 0.052733492 0.040852327 -0.073309965
000110 1f e1 2b bd 77 d7 a9 3d f6 86 a8 3c e5 4e a4 3c
       -0.04196274 0.0829305 0.020572167 0.020057151
000120 27 ff 15 bd 66 27 46 3c 7c 2d af bc d1 65 63 bd
       -0.036620285 0.012094354 -0.021383993 -0.05551702
000130 95 30 a9 3d 41 73 62 bc 4f 9d b6 3c fe 7d 56 3d
       0.082612194 -0.013821424 0.022291807 0.05236625
000140 b7 06 86 3a 0e d9 8a 3d f1 e3 71 bd 13 5c c9 3c
       0.001022539 0.06779681 -0.059055272 0.024580037
000150 79 fc 53 bd 36 f5 db bc 31 59 5a bc 43 ec c4 3c
       -0.05175445 -0.026850324 -0.013326929 0.02403844
000160 d9 d4 ab 3d e8 4d 67 3d 4b 9e c6 3c 63 53 d8 bc
       0.08390207 0.05647078 0.024245402 -0.02640695
000170 a8 29 e4 bc 07 c2 a3 3c a3 3d 4d bd 56 9d 1a 3d
       -0.027851894 0.01998998 -0.05010761 0.037747703
000180 7a 87 8c 3d fa b4 1f bb 95 48 c8 bb 11 c7 9d bd
       0.068617776 -0.0024369345 -0.006112168 -0.077039845
000190 78 0d d3 bc 48 6e 7d bd 65 88 64 bd 32 f6 bc 3b
       -0.025763258 -0.06187275 -0.05579414 0.0057666535
0001a0 67 69 5b 3d cd 87 b9 bd a5 19 87 3c 33 14 a1 bd
       0.053567316 -0.09059105 0.01649172 -0.07865181
0001b0 33 21 62 bd bf c6 80 bd 69 4b df bc 94 62 18 bd
       -0.055207442 -0.06287908 -0.027257638 -0.037203386
0001c0 83 a4 17 3d c7 96 7a bd f2 ed 05 bc 30 4b 94 bd
       0.037022125 -0.06117895 -0.008174406 -0.072409034
0001d0 f9 69 93 3d 05 8d 7d bd a3 49 00 3c e1 ae b6 bc
       0.07197947 -0.061902065 0.007830056 -0.022300186
0001e0 a6 a5 c7 3d 5f 6c 26 bd fa a1 9e 3d 34 67 0a bb
       0.09748392 -0.040630694 0.07745738 -0.0021118643
0001f0 8f 1d 42 bd ae 9c 08 bd 75 1a a1 3d 65 0b 27 3d
       -0.04739147 -0.033352546 0.078663744 0.04078235
000200 22 00 ef bc 44 0d 73 bd f2 b5 b2 bd 85 ff 96 3c
       -0.029174868 -0.059338823 -0.087261096 0.018432388
000210 f6 80 59 3d 96 3b 7a 3d 9b 22 a9 bc 57 f3 2a bc
       0.053101502 0.06109198 -0.020646384 -0.010433993
000220 0f 40 73 3d 78 02 8d 3d a9 64 91 3d 8a 25 94 bd
       0.059387263 0.068852365 0.070992775 -0.072337225
000230 c4 f6 ac bc 51 c5 b3 3c 82 45 11 bd ce 0d 9d bc
       -0.02111376 0.021944674 -0.03546668 -0.019171622
000240 e7 8c a6 bd 5f da e9 3c 4d 59 bc 3d af b6 22 bd
       -0.08132344 0.02854651 0.0919672 -0.039725002
000250 1d 9c bb bd 03 d9 c1 bb 4c e7 b3 3d 24 68 8c bc
       -0.091606356 -0.0059157624 0.08784351 -0.017139502
000260 c8 55 84 bc e0 6a 87 3d 85 8b 0a 3d f2 5b ec 3c
       -0.016154185 0.06612182 0.033824462 0.028852437
000270 3a f7 9b bc 25 bc b5 3c 3e 6b 5e 3c 23 c9 85 bd
       -0.019038785 0.02218444 0.013575373 -0.065325044
000280 c5 e1 21 bd f6 f9 55 3d a5 71 ac bb e9 0a 94 bd
       -0.03952195 0.052240334 -0.005262571 -0.072286434
000290 a9 e0 d1 bc 53 d2 51 3d 5d 52 a3 bd fd a9 dc bc
       -0.025619822 0.05122597 -0.07974694 -0.026936525
0002a0 d1 46 ef 3c 40 e3 a2 3d bb 85 31 bd 8e 19 92 bd
       0.029208573 0.07953501 -0.043340426 -0.071337804
0002b0 5d c7 84 bd f9 16 3c bd b6 eb fc 3c 5d 42 ca bc
       -0.06483338 -0.045920346 0.030874114 -0.024689848
0002c0 40 7f b0 bd 9e 58 22 bd 6c 24 91 3d 77 45 4d 3d
       -0.08618021 -0.039635293 0.07087025 0.050115075
0002d0 c5 9b 38 bd 36 fa ac 3c 4b 46 b3 3d 1e ae 86 3d
       -0.04507043 0.021115404 0.08753642 0.06576179
0002e0 af 0d bd bc a2 7c c8 3c 61 b0 41 bc 85 83 9e bd
       -0.023077814 0.024473492 -0.011821837 -0.07739929
0002f0 1c 72 9a 3c 4c c0 e3 bc 4f e7 90 3d 51 37 cc bc
       0.01885324 -0.027801655 0.070753686 -0.02492872
000300 84 91 53 3c e8 68 ac 3d a5 62 95 3d 75 c1 34 bc
       0.012913112 0.08418447 0.072942056 -0.011032452
000310 bb d9 b3 3d 4b f9 8b 3d 71 94 a1 3d ea 6b c3 3c
       0.08781763 0.06834658 0.07889641 0.023855168
000320 f0 87 91 3d 91 a0 8f 3d 12 bc 7c 3c 14 fc 36 3d
       0.07106006 0.070130475 0.015425699 0.044673994
000330 33 2c 56 bc fc fc c0 bd 8a bf 8b bd 6b 88 10 bd
       -0.013072061 -0.09423253 -0.068236426 -0.03528635
000340 57 5c 5b bd c2 ed 0b 3c 36 0c c0 3d 8a fd a8 bd
       -0.05355486 0.008540573 0.09377329 -0.08251484
000350 c6 93 99 3c dd b6 bf bd b5 40 41 3d 4f aa ac 3d
       0.018747222 -0.0936105 0.04718085 0.08430921
000360 d4 51 58 bd 93 64 5b 3d 4a 08 07 3d d7 66 7a 3c
       -0.052812412 0.053562712 0.03296689 0.015283308
000370 6a 4a 85 3d 1e 37 89 3c 4e ea 01 3d ea cd 8d 3d
       0.06508334 0.016749915 0.03171759 0.069240406
000380 8c 3b 71 bc 11 d4 8c bd 5d de 3c bd 13 47 46 bd
       -0.01472367 -0.06876386 -0.0461105 -0.048407625
000390 94 f2 91 3c 5c a5 c0 3d 5e 0a a0 bd 6c 5d 86 bd
       0.017815866 0.0940654 -0.078144774 -0.065607876
0003a0 f5 9f d5 bc b4 0d f3 3c 43 3c 0e bd 42 df 3c bb
       -0.02607725 0.02966962 -0.03472544 -0.0028819595
0003b0 d0 51 00 bd df 1c 54 bd b3 91 5e bd 37 a4 0c 3d
       -0.031328022 -0.051785346 -0.05433817 0.034336295
0003c0 a1 1a a6 bd 64 33 a6 3d bc 07 60 bc f2 3c 8c 3d
       -0.08110548 0.08115271 -0.013673719 0.06847562
0003d0 af a3 2c 3c cf 42 49 bd 13 cb 3b bd 15 02 a6 3d
       0.010537072 -0.04913598 -0.045847964 0.08105866
0003e0 3a 0f a4 3d e4 7e 89 bb 67 26 2e 3d 9c d3 20 bd
       0.08010717 -0.0041960347 0.042517092 -0.039264306
0003f0 28 8c ae bc 43 61 7c bd 03 84 97 bd b1 3d cc 3d
       -0.021307066 -0.061616194 -0.07398226 0.09972704
