model_project/result/lstm_IMU_JOINT_epoch4.pth (torch, 873327 bytes, 10 tensors)

lstm.weight_ih_l0 f4 [512, 36]
0	0x3cba6893	0.022754943
1	0xbd69084c	-0.05689268
2	0xbcf811f9	-0.030282008
3	0x3da0e26b	0.07855686
4	0xbc95cf7a	-0.01828741
5	0x3c2b8227	0.010468042
6	0x3d471c55	0.048611004
7	0x3caee2ec	0.02134844
8	0x3d5ab47d	0.053394783
9	0xbd94d599	-0.07267303
10	0x3d3429f0	0.043985307
11	0x3cca0d98	0.024664685
12	0xbcb8dc03	-0.022565847
13	0xbd6266da	-0.05527387
14	0xbd109a80	-0.035303593
15	0xbadf2a65	-0.0017026184
16	0x3cacff89	0.021117942
17	0x3d79783c	0.06090568
18	0xbdc09bfe	-0.09404753
19	0x3d990f1c	0.07473585
20	0xbb18eaeb	-0.0023333381
21	0xbcc43792	-0.02395228
22	0xbd51bf9f	-0.051208135
23	0xbd4f28af	-0.05057591
24	0xbca62555	-0.020281473
25	0x3d5bc944	0.05365874
26	0xbda4e3f7	-0.08051293
27	0x3d22f62c	0.03978555
28	0xbcbff0f9	-0.023430334
29	0xbcbc1aac	-0.022961937
30	0x3cc70cca	0.02429809
31	0x3d73e97d	0.059548844
32	0xbd66138f	-0.056170996
33	0xbd202eb1	-0.03910703
34	0x3d184d2c	0.03718297
35	0xbc9701d3	-0.018433487
36	0xbcbd9892	-0.02314404
37	0x3d2ce17c	0.042207226
38	0xbd623b11	-0.05523211
39	0x3c04e881	0.008112074
40	0xbdb8b061	-0.090180166
41	0x3d4fe078	0.05075118
42	0x3c98f370	0.018670768
43	0xbcaf3ddf	-0.021391807
44	0x3c42eff8	0.011898033
45	0xbd0e8bba	-0.034801222
46	0xbdafa12d	-0.08575664
47	0xbcbdc3e2	-0.023164693
48	0xbd525e76	-0.051359616
49	0x3d9e6f53	0.07736077
50	0xbd7fa4db	-0.062413078
51	0xbcc55899	-0.024090098
52	0xbd07e651	-0.03317863
53	0xbcdc1db6	-0.026869636
54	0xbd39c2de	-0.045351855
55	0xbd9796af	-0.074017875
56	0x3d868b0d	0.065694906
57	0xbbab0efb	-0.0052202917
58	0x3c11cb14	0.008898515
59	0xbdc9852a	-0.09839852
60	0xbd0f4d4d	-0.03498583
61	0xbd1cbc80	-0.038265705
62	0x3d93a4c1	0.07209159
63	0x3db92ada	0.090413764
64	0x3c4b12e8	0.012394644
65	0x3d70d70b	0.05879883
66	0xbd410990	-0.04712826
67	0xbcbab1ab	-0.022789797
68	0xbd9800e4	-0.07422045
69	0xbd4efaa0	-0.050531983
70	0x3d754e10	0.0598889
71	0x3b22a515	0.0024817635
72	0xbcfc6353	-0.03080908
73	0xbd36ac52	-0.04459793
74	0x3d6249b5	0.055246074
75	0xbd9f4f09	-0.07778747
76	0xbd8cfc87	-0.06884103
77	0x3d4086a6	0.04700341
78	0xbdad4d5e	-0.08462022
79	0x3b26a186	0.0025425865
80	0x3d252f7a	0.04032848
81	0x3d2d4bcc	0.042308614
82	0xbcd12785	-0.02553154
83	0x3d70a010	0.058746397
84	0xbcb4a90d	-0.022053266
85	0x3d89f205	0.06735615
86	0xbdaeb681	-0.085309036
87	0x3d559c3f	0.05215096
88	0x3cf777cb	0.030208489
89	0xbb626fc8	-0.003455149
90	0x3d7ad38e	0.06123691
91	0x3c8b300b	0.016990682
92	0xbd9ff32b	-0.078100525
93	0xbd45ba43	-0.048273336
94	0xbd8af521	-0.06785036
95	0xbd93ea72	-0.07222451
96	0x3d37d870	0.044884145
97	0xbd95c7a7	-0.07313471
98	0xbcebefdb	-0.028800895
99	0xbd0c2938	-0.034218997
100	0x3d892243	0.06695988
101	0x3d50b3e6	0.050952815
102	0x3ddaab15	0.106771626
103	0x3be168c7	0.0068789455
104	0xbbef038a	-0.007294123
105	0x3c3003e8	0.010743119
106	0xbd8161f6	-0.06317513
107	0x3d9ddfdf	0.07708716
108	0xbd1ea174	-0.038728192
109	0xbc810fc7	-0.015754594
110	0xbbd7109b	-0.006563259
111	0xbdba7540	-0.09104395
112	0xbd56191c	-0.05227004
113	0x3c912781	0.017719032
114	0xbd20001a	-0.039062597
115	0xbc71147f	-0.014714359
116	0x3d427f68	0.047484785
117	0xbd8f4325	-0.06995229
118	0xbd6d655b	-0.05795799
119	0xbbbd5bc0	-0.0057787597
120	0x3d968149	0.07348878
121	0x3d94582c	0.0724338
122	0x3d969701	0.073530205
123	0x3d388ab5	0.045054156
124	0xbd88370a	-0.06651123
125	0xbdadf163	-0.084933065
126	0xbc69538e	-0.014241112
127	0xbd05c9a4	-0.032663003
128	0xbd31ce7a	-0.043409802
129	0x3d6f64d0	0.05844575
130	0x3d3a6171	0.045503084
131	0xbd934b25	-0.07192067
132	0x3c98735a	0.018609691
133	0xbcea9c1c	-0.028638892
134	0x3d3493f6	0.04408642
135	0xbd013b47	-0.031550672
136	0x3db11aec	0.08647713
137	0xbd86a001	-0.06573487
138	0x3c6b6d2c	0.01436929
139	0xbbc3f8a5	-0.0059805685
140	0x3d623c25	0.05523314
141	0xbccf923d	-0.025338287
142	0x3d18eb7b	0.037333947
143	0x3d7b5e9f	0.061369535
144	0x3dbdbbe9	0.09264357
145	0xbd34f8b6	-0.0441825
146	0xbd8b24e5	-0.067941464
147	0xbce1c4cd	-0.027559662
148	0x3bb219fa	0.0054352256
149	0xbdba5c3a	-0.09099622
150	0x3d8648dc	0.065568656
151	0x3c1b5ab5	0.009482075
152	0x3d1ac149	0.037781987
153	0xbc24b822	-0.010053666
154	0x3cc9349f	0.024561225
155	0xbcb47435	-0.022028068
156	0x3d135cce	0.035977177
157	0x3cd6f53d	0.026239986
158	0x3c09598a	0.008383164
159	0x3d931074	0.071808726
160	0xbd8297f8	-0.06376642
161	0xbd9fc783	-0.07801726
162	0x3d3d5882	0.046226986
163	0xbd9e4084	-0.07727149
164	0x3b3648fb	0.0027814496
165	0xbd5ddf8a	-0.05416826
166	0xbbedca66	-0.007256794
167	0xbd39b4c5	-0.04533841
168	0x3d716438	0.058933467
169	0x3d5224b5	0.051304538
170	0x3c97db57	0.018537207
171	0xbdacabf6	-0.084312364
172	0x3cd4b033	0.025962925
173	0x3d56e95b	0.05246864
174	0xbc8cc5e6	-0.01718421
175	0xbd2d4904	-0.04230596
176	0xbcc59489	-0.024118679
177	0x3d313c9c	0.043270692
178	0x3db89986	0.09013657
179	0x3d67a5b4	0.05655451
180	0xbdb88a53	-0.09010758
181	0x3ccdbf18	0.025115535
182	0xbcda8908	-0.02667667
183	0x3b182c1f	0.0023219658
184	0xbcb525d5	-0.022112766
185	0xbce19bd4	-0.027540125
186	0x3d3258a5	0.04354157
187	0x3ca98d8a	0.020697374
188	0xbdbcd98e	-0.09221183
189	0xbc775456	-0.015095791
190	0x3c661dc5	0.014045184
191	0xbd9ba828	-0.07600433
192	0x3de89bca	0.113578394
193	0x3a977fd7	0.0011558485
194	0x3c913e70	0.017729968
195	0x3c8af892	0.01696423
196	0xbd608cd2	-0.054821797
197	0xbd032e8a	-0.032026805
198	0x3d2308b3	0.039803218
199	0xbd19bfb1	-0.037536327
200	0xbd2718a4	-0.040794984
201	0x3d5cf451	0.053943936
202	0xbcce539a	-0.025186349
203	0xbb1f7ec6	-0.0024337037
204	0x3da7c468	0.081917584
205	0xbc22586e	-0.009908779
206	0x3cc121df	0.023575721
207	0x3b265237	0.0025378594
208	0xbcae420b	-0.021271726
209	0x3d98a1a6	0.07452707
210	0x3da24537	0.07923358
211	0xbd53a120	-0.051667333
212	0x3d2dcf96	0.042434298
213	0xbcb2d1bb	-0.021828523
214	0xbdb2e784	-0.08735564
215	0x3cf9540b	0.030435583
216	0x3d2908ef	0.041268285
217	0x3d0cfb6f	0.034419473
218	0x3c9886d4	0.018618979
219	0xbdae982d	-0.08525119
220	0xbc01b090	-0.007915631
221	0xbd8ebc98	-0.06969565
222	0xbd9014be	-0.07035206
223	0x3d985584	0.07438186
224	0xbc904a9c	-0.017613702
225	0x3d1d4fe0	0.038406253
226	0xbc04c0de	-0.008102624
227	0x3d485b8e	0.04891544
228	0x3b6bad61	0.0035961496
229	0xbd86e608	-0.06586844
230	0x3dbe75bd	0.092998005
231	0x3d141a89	0.03615812
232	0xbda4877a	-0.080336526
233	0xbd315a0a	-0.04329876
234	0x3d3fb3b7	0.04680225
235	0x3da055d3	0.0782887
236	0x3c9afec9	0.01892032
237	0xbccc4fa5	-0.024940321
238	0xbd9e0272	-0.0771531
239	0x3babbddb	0.0052411384
240	0xbd114fa7	-0.035476353
241	0x3d70b793	0.05876882
242	0xbcd92c3a	-0.026510347
243	0xbd2a05f6	-0.04150959
244	0xbba46075	-0.0050163814
245	0xb9c128e6	-0.000368423
246	0x3cec0794	0.028812207
247	0x3bd787d4	0.0065774713
248	0x3c254cd0	0.010089114
249	0xbcc4fe1d	-0.024046952
250	0x3d67654a	0.05649308
251	0xbd3370cd	-0.043808747
252	0x3a2067fb	0.000611901
253	0xbb0d8750	-0.0021595545
254	0xbc3f7a55	-0.011686881
255	0x3cfbfcd1	0.0307602

lstm.weight_hh_l0 f4 [512, 128]
0	0x3d119628	0.03554359
1	0xbd7cba94	-0.061701372
2	0xbdb4d9d6	-0.088306114
3	0xbaf40aaf	-0.0018618907
4	0xbd959835	-0.07304422
5	0xbcb1d258	-0.021706745
6	0xbd099952	-0.033593483
7	0x3cc71aad	0.024304712
8	0xbb1ad9f0	-0.0023628436
9	0x3d5312d5	0.05153163
10	0xbbb0787f	-0.005385458
11	0x3cb41667	0.021983339
12	0xbd80f080	-0.06295872
13	0xbd1c6936	-0.038186274
14	0xbd0c73ec	-0.03429024
15	0x3d7edd85	0.062222976
16	0x3cfb4914	0.030674495
17	0x3d3a711f	0.045518037
18	0xbc69100d	-0.014225018
19	0x3d1152ac	0.035479233
20	0x3ce0258e	0.027361657
21	0xbdae05cf	-0.08497202
22	0xbd81d09e	-0.06338619
23	0x3dc8fafb	0.09813496
24	0xbd9ef706	-0.0776196
25	0x3d99d96d	0.07512174
26	0x3ce9c736	0.028537374
27	0x3d9a82b2	0.075444594
28	0x3c2234d7	0.009900293
29	0xbcdacc5a	-0.02670877
30	0x3d851823	0.06498744
31	0x3d3ebcf0	0.046566904
32	0x3adf63b4	0.0017043264
33	0xbcfb05a2	-0.030642334
34	0x3d4fd981	0.050744537
35	0x3d0498d5	0.032372314
36	0xbd355306	-0.04426863
37	0x3c8a19ce	0.016858008
38	0x3c982a02	0.018574718
39	0xbaf73ee6	-0.001886335
40	0xbd2f0f45	-0.04273917
41	0x3d43c992	0.047799654
42	0x3ceb8103	0.028748041
43	0x3d59f243	0.053209554
44	0xbdaecee1	-0.08535553
45	0xbd9b5c36	-0.07585947
46	0x3d2dabdb	0.042400222
47	0xbca38827	-0.019962383
48	0xbd824d92	-0.063624516
49	0xbd831477	-0.06400388
50	0xba86e469	-0.001029146
51	0xbb500284	-0.003173978
52	0xbcf405eb	-0.029787978
53	0x3d235229	0.039873276
54	0xbd411073	-0.047134828
55	0xbd84736c	-0.064673275
56	0xbd308707	-0.043097522
57	0xbb2284a1	-0.0024798291
58	0xbd4ae33a	-0.049533106
59	0x3d43ba2d	0.047784973
60	0x3d8ca929	0.06868202
61	0x3ced484f	0.028965143
62	0xbd8390dd	-0.06424115
63	0xbd647c68	-0.055782706
64	0xbd861538	-0.06547016
65	0xbd937d30	-0.07201612
66	0x3d28616a	0.041108526
67	0x3cdb0457	0.026735468
68	0xbd7c7583	-0.061635505
69	0xbd871101	-0.0659504
70	0xbd5d1406	-0.053974174
71	0x3da83f95	0.08215252
72	0xbd2b0d75	-0.04176088
73	0x3cf4b5b4	0.029871799
74	0xbda4c8f3	-0.080461405
75	0xbcf46e57	-0.02983777
76	0xbcfd6b0a	-0.03093483
77	0xbd812c90	-0.06307328
78	0x3db571f3	0.08859625
79	0xbd72347a	-0.059132077
80	0xbb483655	-0.0030549963
81	0xbaa48a9b	-0.0012553515
82	0xbd8ffb4c	-0.07030353
83	0x3d4d4d5f	0.050122615
84	0x3c21aef7	0.009868375
85	0x3d15962b	0.036520164
86	0xbcf85983	-0.03031612
87	0xbdbec4f0	-0.093149066
88	0xbc8e363b	-0.017359843
89	0xbd865e99	-0.06561012
90	0xbdbe6385	-0.092963256
91	0x3d22f9fc	0.039789185
92	0x3d170bb6	0.036876403
93	0x3c9b50fd	0.018959517
94	0xbda47e20	-0.08031869
95	0xbc447604	-0.011991028
96	0xbcdd39f2	-0.02700517
97	0xbc817096	-0.015800755
98	0xbd8b3a26	-0.067982
99	0xbd38cab1	-0.045115177
100	0xbd3ef9ea	-0.046625055
101	0x3daf4b8c	0.08559331
102	0x3becaf4e	0.0072230464
103	0xbdad252e	-0.08454357
104	0xbd923c79	-0.071404405
105	0xbc90d206	-0.017678272
106	0x3da73f6f	0.08166396
107	0x3d0866cd	0.033301163
108	0x3d394b23	0.04523767
109	0xbd5bc6a4	-0.053656235
110	0x3cb3c367	0.021943761
111	0x3da5e415	0.08100144
112	0x3d9fdc71	0.07805718
113	0x3cbaec82	0.022817854
114	0xbd81a584	-0.06330398
115	0xba0901df	-0.0005226414
116	0x3ced3b81	0.028959038
117	0xbdace4ab	-0.084420525
118	0xb954d559	-0.00020297374
119	0xbda79e25	-0.081844606
120	0x3d83a246	0.064274356
121	0xbda2f475	-0.07956783
122	0x3b5d34ad	0.003375332
123	0x3d588099	0.052857015
124	0x3d0b63a0	0.034030557
125	0x3c4db55e	0.012555448
126	0xbda1aeed	-0.078946926
127	0x3da06911	0.0783254
128	0xbcd8015a	-0.026367832
129	0x3d870b00	0.06593895
130	0xbb73b2cc	-0.0037185429
131	0x3d28119b	0.041032415
132	0x3d58d034	0.052932933
133	0xbc606c56	-0.013697704
134	0xbd3d0edf	-0.04615676
135	0x3d4218ea	0.04738704
136	0x3d8b745f	0.068093054
137	0xbd5d1d95	-0.05398329
138	0x3db984b3	0.090585135
139	0x3bac734a	0.005262767
140	0x3b96079e	0.0045785448
141	0xbd9c46d6	-0.076306984
142	0xbcdcd7ea	-0.026958425
143	0x3dcde3b0	0.100531936
144	0xbb10a998	-0.0022073742
145	0xbc9ee66e	-0.019396987
146	0xbd72ddb2	-0.059293456
147	0xbd061f01	-0.03274441
148	0xbd312141	-0.043244604
149	0x3d135a33	0.035974693
150	0x3d5cc041	0.053894285
151	0x3db9dc6a	0.09075244
152	0x3d980d74	0.07424441
153	0x3c987a53	0.018613016
154	0xbca895b3	-0.020579195
155	0x3ca3e14c	0.02000489
156	0xbccd2cce	-0.025045779
157	0xbd0e8dc7	-0.03480318
158	0x3ce6a80e	0.028156307
159	0x3ca830ef	0.020531146
160	0x3c6b40c9	0.014358708
161	0xbce8e57e	-0.028429743
162	0xbdb89bc1	-0.09014083
163	0x3c6435c3	0.013928833
164	0xbd7227ab	-0.05911986
165	0x3acf939c	0.0015836838
166	0xbc4b9d38	-0.012427621
167	0x3c753d53	0.014968234
168	0x3dc1f0ff	0.094697945
169	0x3d6dae92	0.05802781
170	0x3cb6cf67	0.022315694
171	0x3dc227e9	0.094802685
172	0x3d343ccd	0.044003297
173	0xbd4f21ef	-0.05056947
174	0xbc033d8c	-0.008010279
175	0xbd759cfb	-0.05996416
176	0xbd231a09	-0.03981975
177	0xbd2364f1	-0.039891187
178	0xbd442ae7	-0.047892477
179	0xbc7005b5	-0.014649798
180	0xbd603512	-0.05473811
181	0x3c4970ab	0.012294929
182	0xbd147df1	-0.03625292
183	0x3c0fafaa	0.008769909
184	0x3d9c20e5	0.07623462
185	0xbdbbbc15	-0.09166733
186	0x3d8b854f	0.06812536
187	0xbcb395ba	-0.021921981
188	0xbc789377	-0.015171877
189	0x3d9cf3cb	0.07663687
190	0x3ca92643	0.020648127
191	0xbd4d7389	-0.05015901
192	0xbd7a83e4	-0.061160937
193	0xbb0532a2	-0.002032437
194	0x3d3f7d96	0.046750627
195	0x3d86f303	0.065893196
196	0x3ccad0d6	0.024757784
197	0xbd949f83	-0.07256987
198	0xbd9eb475	-0.07749263
199	0x3d5ff968	0.05468121
200	0xbd779467	-0.060444262
201	0x3d3cdc29	0.0461084
202	0x3ce529c3	0.027974015
203	0x3d15b27b	0.036547165
204	0x3d6d9f59	0.058013294
205	0xbceebc84	-0.029142626
206	0x3da936a4	0.08262375
207	0x3ce6cf92	0.02817515
208	0xbd8f7a35	-0.07005731
209	0x3da0ed2f	0.07857739
210	0xbd3021d5	-0.043001015
211	0xbd29128f	-0.041277464
212	0x3d5bd6bd	0.053671587
213	0x3d23b8c3	0.039971124
214	0xbbbb1931	-0.00570979
215	0x3d8cbddd	0.06872151
216	0x3d5acab9	0.053415988
217	0xbd9537e9	-0.07286055
218	0x3d33c907	0.043892886
219	0xbd3aba83	-0.045588028
220	0x3d415b0f	0.04720598
221	0xbd4758d0	-0.048668683
222	0xbd6fa923	-0.05851091
223	0x3c9056df	0.017619548
224	0xbd9fe8bd	-0.07808063
225	0xbcba5a10	-0.022748023
226	0xbdabe4f6	-0.0839328
227	0xbc3fd937	-0.011709503
228	0x3d9c8ef9	0.07644457
229	0x3d16bd88	0.036801845
230	0xbda710f1	-0.08157528
231	0xbc9d8003	-0.01922608
232	0xbcdd217d	-0.026993508
233	0xbd85f784	-0.065413505
234	0xbd1678a6	-0.036736153
235	0x3d90c28a	0.070683554
236	0x3d6e244d	0.058140088
237	0x3cd44258	0.025910541
238	0x3da4e0ba	0.08050676
239	0x3d873462	0.06601788
240	0xbd587426	-0.052845143
241	0xbc527107	-0.012844331
242	0x3c938cf0	0.01801154
243	0xbcb53821	-0.02212149
244	0xbd3f6855	-0.04673036
245	0xbd9f9aeb	-0.0779322
246	0xbb9b7eb5	-0.0047453293
247	0x3d79710b	0.06089882
248	0x3d674696	0.0564638
249	0xbbd9a68e	-0.0066421693
250	0xbc0b16b4	-0.0084893
251	0xbdae4111	-0.08508504
252	0x3d3928e6	0.04520502
253	0x3da09291	0.07840455
254	0xbdc527fd	-0.09626768
255	0xbca27eeb	-0.01983591

lstm.bias_ih_l0 f4 [512]
0	0xbd416fd9	-0.047225807
1	0x3d3388b7	0.043831553
2	0xbc35ed22	-0.0111039
3	0xbd81940e	-0.06327067
4	0xbc6acf22	-0.014331611
5	0x3c1e162d	0.009648842
6	0x3cfce024	0.030868597
7	0x3da997bb	0.082808934
8	0xbd58a2bd	-0.052889574
9	0x3d52bf3e	0.051451914
10	0x3c9b1525	0.018930981
11	0xbd3acc62	-0.04560507
12	0x3c5aa94c	0.013346028
13	0x3d738399	0.059451673
14	0x3cdb8551	0.026796969
15	0xbb4b834a	-0.0031053596
16	0xba76f510	-0.00094206724
17	0xbbc81140	-0.006105572
18	0xbd95a62f	-0.07307088
19	0x3d2765a5	0.04086842
20	0xbcf4af4c	-0.029868744
21	0x3d6382e0	0.055544734
22	0x3d9a5284	0.0753527
23	0x3dc4fdb4	0.096187025
24	0xbd6d157b	-0.057881813
25	0xbd937ed2	-0.072019234
26	0xbd33d38a	-0.04390291
27	0xbd46fc77	-0.048580613
28	0x3d3b5231	0.04573268
29	0xbd26d0cf	-0.04072648
30	0xbd5ebd7a	-0.054379918
31	0x3bd6a416	0.0065503223
32	0x3cfddb4f	0.030988364
33	0x3c39c2e4	0.011337969
34	0xbcc21d2e	-0.023695555
35	0xbd02ad1f	-0.031903382
36	0xbd0b510a	-0.03401283
37	0x3dae0608	0.08497244
38	0xbca4a296	-0.020097058
39	0x3d0b71d4	0.0340441
40	0x3d62ea51	0.055399243
41	0x3c9bbdae	0.019011345
42	0xbd7a5ee0	-0.061125636
43	0x3d68dda9	0.056852017
44	0xbcef1a72	-0.029187415
45	0xbcea72f9	-0.028619276
46	0xbd85bfc6	-0.065307185
47	0xbd811648	-0.06303078
48	0xbca267f9	-0.019824969
49	0x3b94d9cb	0.0045425645
50	0x3ca24c86	0.01981188
51	0xbd9cbef2	-0.076536074
52	0x3d1c3a20	0.03814137
53	0xbc1138f9	-0.008863681
54	0x3d5c4827	0.053779747
55	0x3da89af1	0.08232678
56	0x3c3c9919	0.011511111
57	0x3c046291	0.008080141
58	0xbd82eba9	-0.06392605
59	0xbd82ad26	-0.06380682
60	0x3cc32936	0.023823362
61	0xbd7e8e0c	-0.062147185
62	0x3da496d4	0.08036581
63	0xbbcd63bf	-0.006267994
64	0x3d9c5cc2	0.0763488
65	0x3db30f70	0.08743179
66	0xbd6552f9	-0.055987332
67	0xbd2f73f9	-0.04283521
68	0x3c976f72	0.018485758
69	0x3c795733	0.015218544
70	0x3d05b13f	0.03263974
71	0x3b904ef9	0.0044039455
72	0xbd5cee6a	-0.053938307
73	0x3c8e1d43	0.017347937
74	0x3db3d6f0	0.087812304
75	0x3da2ee2d	0.07955585
76	0xbda84702	-0.08216669
77	0xbd0912c7	-0.033465173
78	0xbccedb4e	-0.025251057
79	0xbc038910	-0.008028284
80	0x3d9e1902	0.077196136
81	0xbca9994a	-0.020702977
82	0xbd9281dd	-0.07153676
83	0x3d78abf4	0.060710862
84	0x3d132b3b	0.0359299
85	0xbd012d3d	-0.031537283
86	0xbdd1efb2	-0.102507964
87	0xbcdc9115	-0.02692465
88	0x3d04d567	0.03243008
89	0xbd39c797	-0.04535636
90	0xbbf79d5f	-0.007556602
91	0xbd7437f9	-0.059623692
92	0xbda27c25	-0.07933835
93	0xbdb849c7	-0.08998447
94	0xbd3c0871	-0.045906488
95	0xbd0e4516	-0.034733854
96	0x3d693c55	0.056942303
97	0x3d83de56	0.064388916
98	0x3d9680bf	0.07348775
99	0xbdaacf1e	-0.08340286
100	0x3d1087d7	0.035285797
101	0x3d7324c3	0.05936123
102	0xbca8aa43	-0.020589
103	0x3c8f3e4c	0.01748576
104	0xbd3555e5	-0.04427137
105	0x3ce1b89b	0.027553847
106	0xbd38c9d4	-0.045114353
107	0x3d745d83	0.059659492
108	0xbc4c8328	-0.012482442
109	0xbc2c8c72	-0.010531532
110	0x3cf110bd	0.029426927
111	0xbd1b702e	-0.03794878
112	0xbd741308	-0.059588462
113	0x3d9c79d5	0.07640425
114	0x3d444f4a	0.04792718
115	0x3c777275	0.015102972
116	0xbd231dd0	-0.039823353
117	0xbd0c75ba	-0.03429196
118	0xbd0736cd	-0.033011246
119	0xbd018417	-0.03162011
120	0xbd8e892d	-0.06959758
121	0x3d0b533c	0.034014925
122	0xbd6bf5d4	-0.057607487
123	0xbd053051	-0.03251678
124	0x3cfd96b5	0.030955652
125	0x3da004e6	0.07813434
126	0xbd4894bc	-0.04896997
127	0xbca6c31b	-0.020356705
128	0x3da7e797	0.08198469
129	0x3b3bd636	0.0028661615
130	0x3d3ba700	0.04581356
131	0xbd3bf317	-0.045886125
132	0x3d4f2d46	0.050580285
133	0x3dd4d869	0.103928395
134	0x3c231d3d	0.009955701
135	0x3d53384e	0.05156737
136	0x3d06b3d4	0.03288634
137	0xbd3d46ed	-0.04621022
138	0x3d6b7267	0.05748215
139	0xbd9c5325	-0.07633046
140	0x3d90c4bb	0.07068773
141	0xbd0b2433	-0.03397007
142	0x3dc25810	0.09489453
143	0xbd153c9f	-0.036434766
144	0xbce3743f	-0.027765391
145	0x3d9a4612	0.07532896
146	0x3bb00d35	0.005372668
147	0xbdb7e22d	-0.089786865
148	0xbd0149bc	-0.03156446
149	0xbd020a24	-0.031747952
150	0xbd4af969	-0.049554262
151	0xbc9faecf	-0.019492535
152	0xbd8f3081	-0.06991673
153	0x3da74bc4	0.08168748
154	0xbc1239b4	-0.00892489
155	0x3cbe3790	0.023219854
156	0xbd88c605	-0.06678394
157	0xbd4bc97e	-0.049752705
158	0xbd8df026	-0.0693057
159	0xbd8f7d78	-0.07006353
160	0xbda67b30	-0.08128965
161	0x3d034d0d	0.032055903
162	0xbbf910f9	-0.0076009003
163	0xbd253297	-0.04033145
164	0x3a874400	0.0010319948
165	0xbcd59386	-0.026071321
166	0xbc969b38	-0.018384561
167	0xbcfd366d	-0.030909741
168	0xbba9aa14	-0.0051777456
169	0x3da8df8f	0.082457654
170	0xbd836904	-0.064165145
171	0x3ba7fa8c	0.005126303
172	0xbc35af0d	-0.011089099
173	0x3d724ccc	0.05915527
174	0xbaaf0a99	-0.0013354599
175	0x3d8dbee7	0.06921177
176	0xbd80e595	-0.06293789
177	0xbca8e92c	-0.020618998
178	0xbd2a95d2	-0.041646786
179	0x3dad691a	0.08467312
180	0x3d3c3ebe	0.045958273
181	0xbc4d2e90	-0.012523308
182	0x3d50b10c	0.050950095
183	0x3d818a6e	0.063252315
184	0x3cad4c84	0.02115465
185	0xbd3f209e	-0.046661966
186	0xbc82b772	-0.015956614
187	0xbc93cb5a	-0.018041302
188	0xbc8640cd	-0.016388321
189	0x3adbe474	0.0016776458
190	0xbd1d26f9	-0.038367245
191	0x3d4a2aa4	0.04935707
192	0xbd2dafdf	-0.042404052
193	0xbd1edc54	-0.03878434
194	0x3d1fcdd1	0.03901464
195	0xbd5ae215	-0.053438265
196	0x3d5516ef	0.052023824
197	0x3d3f2b59	0.0466722
198	0x3d98f6cc	0.07468948
199	0x3d30f4dd	0.04320227
200	0x3bfc1cb0	0.0076938495
201	0x3c0e0677	0.0086685335
202	0xbcc9454d	-0.024569178
203	0x3c4ef0f3	0.012630689
204	0x3d5f422b	0.054506462
205	0x3d7581c5	0.05993821
206	0xbd523fd1	-0.05133039
207	0xbd51340c	-0.051075026
208	0xbc9e5cc3	-0.019331342
209	0xbdad0b27	-0.08449393
210	0xbd8dafa4	-0.069182664
211	0x3c25d597	0.010121725
212	0xbd2cc0f2	-0.042176194
213	0x3d1af549	0.03783158
214	0x3c24c1a4	0.010055933
215	0x3d35e478	0.044407338
216	0xbd41be1d	-0.047300447
217	0x3dbb9d8f	0.09160911
218	0xbcf0fa63	-0.029416269
219	0xbd2a7c4c	-0.041622445
220	0x3d1ec16c	0.03875868
221	0x3c043b7a	0.008070821
222	0xbd96022c	-0.07324633
223	0x3cd6dfe6	0.02622981
224	0xbcd62713	-0.026141679
225	0x3ded3981	0.115832336
226	0x3d035e22	0.032072194
227	0xbd09b34d	-0.03361826
228	0x3c200f82	0.009769322
229	0x3c8f4c63	0.017492479
230	0x3caf3906	0.021389496
231	0xbd2a91c9	-0.041642938
232	0x3d23f8d8	0.040032238
233	0x3c9d1630	0.019175619
234	0x3d4dcf42	0.050246485
235	0xbd955e6a	-0.07293399
236	0x3d8c6c9e	0.068566546
237	0x3c53abf8	0.0129194185
238	0x3cba547c	0.022745363
239	0x3d2c703c	0.042099223
240	0x3db1c51b	0.08680173
241	0xbc600e75	-0.013675322
242	0x3d92b5ab	0.07163557
243	0x3d76558d	0.06014018
244	0x3c21770c	0.009855043
245	0x3d49d190	0.04927212
246	0xbca49d8e	-0.02009466
247	0xbcefb9f7	-0.02926348
248	0x3d8924c6	0.06696467
249	0xbba24f2f	-0.004953287
250	0xbd84f86f	-0.064926974
251	0xbd9d322c	-0.07675585
252	0xbd940f8e	-0.07229529
253	0x3c2d1eaa	0.010566393
254	0x3be2ae5e	0.006917759
255	0xbd436233	-0.047701072

lstm.bias_hh_l0 f4 [512]
0	0xbcb1c770	-0.021701545
1	0x3d0ec6b7	0.034857478
2	0xbd9cad97	-0.07650297
3	0x3af5c05a	0.0018749342
4	0x3d78888d	0.0606771
5	0x3c8fd561	0.017557802
6	0x3d884aa9	0.06654865
7	0xbc9d3b6a	-0.01919337
8	0x3db3a03f	0.08770799
9	0x3d4ed282	0.050493725
10	0xbd83cca4	-0.064355165
11	0x3dc13ae6	0.09435062
12	0x3d7e0319	0.062014673
13	0xbd2ba2a6	-0.04190316
14	0x3dc30337	0.095220976
15	0x3b52b8ac	0.003215353
16	0x3d5c843d	0.05383705
17	0xbd7583d4	-0.059940174
18	0xbd86c1c7	-0.06579929
19	0xbc55b2d3	-0.013043123
20	0xbd0ddc1b	-0.034633737
21	0xbd214d23	-0.039380204
22	0x3d5c5858	0.05379519
23	0x3db0daa2	0.08635451
24	0xbda1f523	-0.07908084
25	0x3d5f2534	0.05447884
26	0x3cc8a64f	0.024493365
27	0xbd7dfd40	-0.062009096
28	0x3ce0fb4a	0.027463574
29	0x3dabab41	0.083822735
30	0xbc45abc4	-0.012064878
31	0x3d23909c	0.039932832
32	0xbd5d167e	-0.05397653
33	0xbd7b71a7	-0.061387684
34	0xbd8bc907	-0.06825452
35	0x3d2b7b90	0.041865885
36	0x3c100e4e	0.008792473
37	0xbc03481c	-0.008012798
38	0xba93a18c	-0.0011263355
39	0xbd1b9d6f	-0.037991937
40	0xbd9713d7	-0.07376831
41	0xbd2f5d6b	-0.0428137
42	0x3d539517	0.051655855
43	0xbdb244a9	-0.08704502
44	0x3d317f49	0.04333428
45	0x3d9171c5	0.07101778
46	0xbda3784b	-0.079819284
47	0x3dac70b8	0.08419937
48	0x3ca89889	0.020580547
49	0x3db1dac5	0.08684305
50	0x3d7110a3	0.058853757
51	0xbc9cc72e	-0.019137945
52	0xbc6389ee	-0.0138878655
53	0xbd5730c3	-0.052536737
54	0x3c525e2f	0.012839838
55	0x3d8ac20b	0.06775292
56	0xbd813347	-0.063086085
57	0x3d470c43	0.048595678
58	0xbd2c2da3	-0.04203571
59	0x3c994982	0.01871181
60	0xbc5fccaa	-0.013659636
61	0x3c6bd45d	0.014393893
62	0x3c3e8118	0.011627458
63	0x3dc3b7fd	0.09556577
64	0x3d390502	0.04517079
65	0x3d2d90bb	0.042374354
66	0x3cd62974	0.026142813
67	0x3d1738f9	0.036919568
68	0xbd536c47	-0.051616933
69	0x3d90cacb	0.0706993
70	0xbd8de06c	-0.06927571
71	0xbd4a370e	-0.04936891
72	0x3ca31f78	0.019912466
73	0xbcaa624d	-0.020798827
74	0x3db4654c	0.08808383
75	0xbd800002	-0.062500015
76	0x3d77b29f	0.06047308
77	0xbd0a7808	-0.033805877
78	0xbda534b4	-0.08066693
79	0xbd9252ba	-0.07144685
80	0xbd0bab12	-0.034098692
81	0xbd0d25e7	-0.034459975
82	0x3b8267cc	0.0039796587
83	0x3c76288a	0.015024314
84	0x3c6637aa	0.014051357
85	0x3c6722b6	0.014107397
86	0x3d68f1c3	0.056871187
87	0x3cff5b9f	0.031171618
88	0xbccab562	-0.024744693
89	0xbce1227f	-0.02748227
90	0x3dacd15a	0.08438368
91	0xbd2d06f0	-0.042242944
92	0xbce9d449	-0.028543608
93	0xbd8195eb	-0.06327423
94	0x3d134aa7	0.035959866
95	0xbd0e51c3	-0.034745943
96	0x3d6ec2a1	0.05829108
97	0x3de4cac7	0.11171489
98	0x3dba9b01	0.09111596
99	0xbdb5ca8f	-0.088765256
100	0xbd081a25	-0.03322806
101	0xbd5a0fa3	-0.05323757
102	0x3b9270c9	0.0044690114
103	0xbd6619a1	-0.056176785
104	0x3d8ba744	0.06819013
105	0x3daf0a06	0.08546834
106	0xbda6ee6b	-0.08150943
107	0xbd945df5	-0.072444834
108	0x3d36b9fa	0.044610955
109	0x3cc38e94	0.023871697
110	0x3d28973a	0.041159846
111	0xbc42886a	-0.011873344
112	0xbbfef99a	-0.0077812197
113	0xbd5ecfe2	-0.05439747
114	0x3d2ac921	0.041695718
115	0x3db90396	0.09033887
116	0xbd6a62da	-0.05722318
117	0x3da1d4b6	0.079018995
118	0xbcae2455	-0.021257559
119	0x3d9b2043	0.07574513
120	0xbd92a0f6	-0.07159607
121	0xbd37d4af	-0.044880565
122	0x3c04ee79	0.008113497
123	0x3a9207ce	0.0011141242
124	0xbcac0bd6	-0.021001738
125	0xbcf8f0df	-0.030388294
126	0x3dbb1052	0.09133972
127	0x3c2bf319	0.010494971
128	0x3db8a25b	0.09015342
129	0xbd82e0e6	-0.06390552
130	0xbc2d5fd4	-0.010581929
131	0x3d3e10a9	0.046402607
132	0xbcdddaf1	-0.027081938
133	0x3bfa044c	0.0076299068
134	0xbd8df30f	-0.069311254
135	0x3c181762	0.009282919
136	0x3d72fbae	0.05932205
137	0xbd77c4f6	-0.06049057
138	0x3cde6489	0.027147548
139	0x3db763e7	0.08954602
140	0xbca22161	-0.019791307
141	0x3c6f2706	0.014596706
142	0xbd39f9b5	-0.045404155
143	0x3d1127c6	0.03543832
144	0x3cb7b625	0.02242572
145	0x3da3f95b	0.08006545
146	0xbd4959b3	-0.04915781
147	0x3c050cee	0.008120758
148	0x3cbff732	0.023433302
149	0x3d855290	0.06509888
150	0x3dbd467e	0.09241961
151	0x3d3eab16	0.04654988
152	0x3d23c171	0.039979402
153	0x3cbfa360	0.023393333
154	0x3c89708f	0.016777305
155	0x3d82b6f8	0.06382555
156	0x3cd62f1d	0.026145512
157	0xbd6af544	-0.05736281
158	0x3db47012	0.08810438
159	0xbcd68784	-0.026187666
160	0x3d469e72	0.04849095
161	0xbd5914e2	-0.05299843
162	0xbdb2760e	-0.087139234
163	0xb9a815e5	-0.0003205977
164	0x3d73704e	0.059433274
165	0xbd63ebc6	-0.055644773
166	0xba0a9b6b	-0.00052874413
167	0x3b197102	0.0023413305
168	0x3d84d1d6	0.064853355
169	0x3c9af9d4	0.018917955
170	0x3cfbe926	0.030750822
171	0xbd06b37d	-0.032886017
172	0xbc4497bd	-0.011999068
173	0xbd2e9aa6	-0.042627953
174	0xbd3ed058	-0.04658541
175	0xbd8fdb1b	-0.07024213
176	0x3db7f62a	0.08982499
177	0xbd3fe615	-0.046850283
178	0x3d0b5e1e	0.034025304
179	0xbd4986ba	-0.04920075
180	0x3d2f5168	0.042802244
181	0x3da6a7f5	0.08137504
182	0x3cd7d503	0.02634669
183	0x3d48331b	0.048876863
184	0xbd8186f7	-0.063245706
185	0x3c9de042	0.019271974
186	0xbda26abe	-0.07930516
187	0x3d8bbd6c	0.06823239
188	0x3daa2f14	0.08309761
189	0xbbedc686	-0.007256332
190	0x3d9e211c	0.07721159
191	0x3cb1d9fe	0.021710392
192	0xbd988977	-0.07448094
193	0x3d1f3303	0.038867008
194	0x3d50a4a7	0.050938275
195	0xbc97be91	-0.018523486
196	0x3dbf7139	0.093477674
197	0x3dab29a2	0.0835755
198	0x3dafb980	0.08580303
199	0xbd68269f	-0.056677457
200	0x3bedc88f	0.0072565745
201	0x3d86aeca	0.06576307
202	0x3d3e363b	0.046438437
203	0xbc6ca93d	-0.014444646
204	0x3cf412c2	0.0297941
205	0x3def871f	0.11695694
206	0xbdac8d0b	-0.08425339
207	0x3d7c3b24	0.06157984
208	0xbd18d952	-0.037316628
209	0xbcc48c13	-0.023992574
210	0x3db785b5	0.089610495
211	0x3d705246	0.058672212
212	0x3d7df66d	0.062002588
213	0x3d692624	0.05692114
214	0xbd0a5972	-0.033776708
215	0xbc71668f	-0.0147339245
216	0xbc88fb35	-0.016721347
217	0xbd938d47	-0.07204681
218	0x3d8e651d	0.069528796
219	0xbd5c1e56	-0.053739868
220	0xbd94174d	-0.07231007
221	0x3c55773f	0.013028919
222	0xbd213c41	-0.039364103
223	0xbda8baee	-0.08238779
224	0x3db62ad7	0.0889489
225	0x3c455f4e	0.012046648
226	0x3d6a1169	0.05714551
227	0x3d86aff6	0.06576531
228	0xbc13feb6	-0.009032896
229	0x3d398346	0.045291208
230	0xbcb802af	-0.022462217
231	0xbce27593	-0.027643954
232	0x3d76e066	0.060272597
233	0x3dbe5efc	0.092954606
234	0x3d30a5d6	0.043126903
235	0xbd2fd2be	-0.04292559
236	0x3c5f3840	0.013624251
237	0x3d15af90	0.036544383
238	0x3d6ffa83	0.058588516
239	0xbc98eece	-0.018668558
240	0x3dac7a53	0.08421769
241	0x3d029279	0.03187797
242	0x3ce8fe0a	0.028441448
243	0xbcf719de	-0.030163702
244	0x3c6084eb	0.013703565
245	0xbd565ad5	-0.052332718
246	0x3d2c04f7	0.041996922
247	0xbd53a654	-0.051672295
248	0xbd9fa412	-0.07794966
249	0x3d063038	0.03276083
250	0xbd9826d0	-0.07429278
251	0xbd7f90a8	-0.062393814
252	0xbdb07a1e	-0.08617042
253	0x3c81ea75	0.015858868
254	0xbd9bc3cd	-0.076057054
255	0xbd5782ff	-0.052615162

lstm.weight_ih_l1 f4 [512, 128]
0	0x3cc3eb55	0.023915926
1	0x3c0c73b5	0.008572509
2	0x3d3c78d8	0.046013683
3	0xbd3f09cc	-0.046640202
4	0x3d67fdc8	0.05663851
5	0xbcbfcbdf	-0.023412643
6	0xbdac3d57	-0.08410137
7	0x3d9ee42e	0.077583656
8	0xbd815996	-0.06315915
9	0xbdc3161a	-0.095257
10	0xbc67cacb	-0.014147471
11	0xbde80621	-0.11329294
12	0x3c557b68	0.013029911
13	0xbd39d7f5	-0.04537197
14	0x3ca03497	0.019556327
15	0xbc3544b5	-0.011063744
16	0xbd557ea4	-0.052122727
17	0x390ff327	0.00013728124
18	0x3d63042a	0.055423893
19	0xbd3fb91e	-0.0468074
20	0xbcf0af30	-0.02938041
21	0xbd8fde6a	-0.07024844
22	0x3d4a92da	0.049456455
23	0x3c2b57a6	0.010457909
24	0x3d06cc8d	0.03290992
25	0x3df15f36	0.11785738
26	0xbdc3c3e8	-0.095588505
27	0xbcd8b7b8	-0.026454791
28	0xbc944fd9	-0.01810448
29	0xbc8860a3	-0.016647642
30	0xbbf64999	-0.0075160977
31	0x3d88c14c	0.066774935
32	0x3d3f03a9	0.04663435
33	0xbc8c9db0	-0.017165035
34	0xbcc040ce	-0.023468401
35	0x3c16e135	0.009208967
36	0xbcc1e7fa	-0.023670185
37	0x3d32596c	0.04354231
38	0x3d7a3149	0.06108216
39	0xbddb407b	-0.10705658
40	0xbdc32ecd	-0.09530411
41	0x3c0d2f34	0.008617211
42	0xbdbaa5fc	-0.0911369
43	0xbcac9cce	-0.021070864
44	0x3c982771	0.018573495
45	0x3d052457	0.03250536
46	0x3d02170b	0.031760257
47	0x3b0b5b32	0.0021264073
48	0x3c78bd35	0.015181829
49	0xbc8b2a52	-0.016987953
50	0xbcf489ec	-0.029850923
51	0x3d3c0f62	0.045913108
52	0xbb84f8c8	-0.0040579773
53	0x3d4de0f2	0.050263353
54	0x3b293368	0.0025817994
55	0x3d14918e	0.036271624
56	0xbd88cabb	-0.06679293
57	0x3cbc2af8	0.022969708
58	0x3d0ae76d	0.03391211
59	0xbddad928	-0.106859505
60	0xbd93b3b8	-0.07212013
61	0xbdad8e62	-0.08474423
62	0xbbeb9b36	-0.0071901334
63	0x3d7e919b	0.06215058
64	0xbda88dfc	-0.08230206
65	0x3d020f72	0.03175301
66	0xbd95997f	-0.07304668
67	0x3db229df	0.086993925
68	0xbd86b76f	-0.06577956
69	0xbcabcab0	-0.020970672
70	0xbcf006b9	-0.02930008
71	0x3d61403a	0.05499289
72	0x3d9a5207	0.07535177
73	0x3b8ead70	0.0043541715
74	0xbd1d7e5f	-0.038450595
75	0x3cf59282	0.029977087
76	0xbd15d2f6	-0.03657814
77	0x3b491545	0.0030682844
78	0xbd984a64	-0.07436064
79	0xbdd0ee58	-0.102017105
80	0xbc9afa49	-0.018918173
81	0x3d97823c	0.07397887
82	0xbdc34f67	-0.09536629
83	0xbc4c14dc	-0.012456145
84	0xbd4e4c25	-0.050365586
85	0xbccf71ec	-0.025322877
86	0xbd35fec0	-0.0444324
87	0xbdd13846	-0.102158114
88	0x389ce6e8	7.481669e-05
89	0xbb4d2228	-0.0031300876
90	0xbdaaa235	-0.0833172
91	0xbd594048	-0.05303982
92	0xbbcb98e4	-0.0062132943
93	0x3d71bf8f	0.059020575
94	0x3d9819cb	0.074267946
95	0x3d0ae28c	0.03390746
96	0xbb4c0acb	-0.0031134363
97	0xbbd6fda1	-0.0065609966
98	0xbc806fc7	-0.0156783
99	0x3dc88ce1	0.097924955
100	0xbdb50d14	-0.08840385
101	0xbd172db3	-0.036908817
102	0xbd2461d0	-0.040132344
103	0xbd684d43	-0.056714308
104	0xbd952e73	-0.0728425
105	0xbd8daa21	-0.06917215
106	0x3d03e0f3	0.03219695
107	0xbd11570f	-0.035483416
108	0xbdfa6650	-0.12226546
109	0xbd113d40	-0.035458803
110	0xbcc886b9	-0.024478303
111	0xbcb69d6f	-0.022291867
112	0x3d6df74f	0.05809718
113	0x3be0ec5c	0.0068641137
114	0xbc563a72	-0.013075458
115	0x3cc5a185	0.02412487
116	0x3df6eafa	0.12056537
117	0x3d66cac9	0.056345735
118	0x3d71760c	0.05895047
119	0x3dc78c00	0.097435
120	0x3da50575	0.080576815
121	0xbdadd4be	-0.08487843
122	0xbd9c2cd5	-0.076257385
123	0xbd8c8b91	-0.06862558
124	0x3d6d536a	0.057940878
125	0xbcc27643	-0.023738032
126	0x3da5f740	0.081038
127	0x3ce1620a	0.027512569
128	0xbd4d49a4	-0.050119057
129	0xbbdb2382	-0.0066875825
130	0x3d20e86d	0.03928416
131	0x3d7804be	0.060551398
132	0x3d8bc633	0.06824913
133	0xbdaf2e04	-0.08553699
134	0xbd1768db	-0.036965232
135	0xbd71b89a	-0.05901394
136	0x3cae1efc	0.021255009
137	0x3ddbed7c	0.10738656
138	0xbd0a7feb	-0.0338134
139	0xbcd61f5b	-0.026137998
140	0x3da4ea40	0.08052492
141	0x3d811a29	0.06303818
142	0x3d8a50d4	0.06753698
143	0xbd72f740	-0.059317827
144	0x3d16428e	0.036684565
145	0x3c388a1c	0.011263397
146	0xbce752c7	-0.028237714
147	0x3de4a570	0.11164367
148	0x3d69e6e5	0.057104964
149	0x3d008bd0	0.031383336
150	0xbd78373b	-0.060599547
151	0xbc956c68	-0.018240169
152	0x3d61b00b	0.05509953
153	0x3c38cf02	0.011279823
154	0x3d559870	0.05214733
155	0x3d8bd135	0.068270124
156	0xbd5b5512	-0.053547926
157	0x3d8fc123	0.0701926
158	0xbd030daa	-0.031995453
159	0x3c029f84	0.007972602
160	0xbd8cb319	-0.06870098
161	0x3d7edd9e	0.06222307
162	0xbd967bfc	-0.07347867
163	0x3d30b28f	0.043139037
164	0x3c76f70f	0.015073552
165	0xbd1c6bee	-0.038188867
166	0x3dc16975	0.094439425
167	0xbd6a437b	-0.05719326
168	0xbd4ee2e6	-0.050509356
169	0xbcb63d90	-0.022246152
170	0x3dbb4fa8	0.091460526
171	0x3b8f04ac	0.0043645706
172	0xbdabc6c0	-0.08387518
173	0xbc9c657e	-0.019091364
174	0xba1c7283	-0.00059679913
175	0xbda0e98a	-0.07857044
176	0xbd9128c8	-0.070878565
177	0xbda8b1b9	-0.08237023
178	0x3d999db0	0.0750078
179	0xbc0d1bdd	-0.0086126
180	0x3c91619f	0.017746745
181	0x3cc7192c	0.024303995
182	0x3daa4d57	0.08315533
183	0xbd60a63d	-0.054846037
184	0xbc12665d	-0.008935538
185	0xbd63f36c	-0.055652067
186	0xbd2c7d69	-0.042111788
187	0x3b9f86d0	0.004868366
188	0xbc7f600c	-0.015586864
189	0xbd15a4e7	-0.036534216
190	0x3d4bf300	0.04979229
191	0x3cb0e957	0.02159564
192	0x3c5778f8	0.0131514
193	0x3d791269	0.060808573
194	0xbd81751c	-0.06321165
195	0x3d1a0ceb	0.037609976
196	0xbcfec660	-0.031100452
197	0xbd967919	-0.07347316
198	0xba3d53ff	-0.0007222294
199	0xbc94cfa0	-0.01816541
200	0xbc5553e2	-0.0130204875
201	0xbda41f30	-0.08013761
202	0xbdc1adfa	-0.094570115
203	0x3d5f21e3	0.054475676
204	0xbbc7a2eb	-0.0060924194
205	0x3bf37098	0.0074291937
206	0xbbc5a027	-0.0060310545
207	0xbdc72540	-0.09723902
208	0xbd3dc53c	-0.046330675
209	0xbd490df4	-0.049085572
210	0x3d3b3135	0.045701224
211	0x3d5760be	0.052582495
212	0x3d7c3e40	0.061582804
213	0x3d49e3fc	0.04928969
214	0xbd5ecc2b	-0.05439393
215	0xbd97c767	-0.0741108
216	0xbcef35f2	-0.029200528
217	0xbd889d0e	-0.06670581
218	0xbd42e65e	-0.047582977
219	0xbbf84a44	-0.0075772125
220	0x3c1880f2	0.009308087
221	0x3da81311	0.08206762
222	0xbd9cd7fb	-0.076583825
223	0x3c4f6ec3	0.012660685
224	0x3cbc3e21	0.022978844
225	0x3c97b618	0.018519446
226	0xbd747beb	-0.05968849
227	0xbd1d0867	-0.03833809
228	0xbc944a50	-0.018101841
229	0x3d9bb155	0.07602183
230	0x3b2caf54	0.002634962
231	0x3d9da420	0.0769732
232	0x3d9519a1	0.07280279
233	0xbd8ad49d	-0.06778834
234	0xbcb480eb	-0.02203413
235	0x3d2cc411	0.04217917
236	0x3c7abbaa	0.015303532
237	0x3dbd4c17	0.092430286
238	0x3da6b8e8	0.08140737
239	0x3ce19f3a	0.027541745
240	0x3d893977	0.06700414
241	0xbd168c0e	-0.03675466
242	0x3de38072	0.111084834
243	0x3c560041	0.013061584
244	0xbd1bbf54	-0.03802426
245	0xbba9ec2e	-0.0051856255
246	0x3d8e96c1	0.06962348
247	0x3d3f02ab	0.046633404
248	0x3af620f7	0.0018778135
249	0x3d9dda7b	0.077076875
250	0x3d9058af	0.07048165
251	0x3d8ddcc4	0.06926873
252	0xbd8f7fc3	-0.070067905
253	0x3ba87135	0.0051404485
254	0xbd7a4d76	-0.06110903
255	0xbd917d50	-0.071039796

lstm.weight_hh_l1 f4 [512, 128]
0	0xbd170924	-0.03687395
1	0xbd6adf6e	-0.057341985
2	0xbdabf738	-0.083967626
3	0xbda0258b	-0.07819661
4	0xbd8939d6	-0.067004845
5	0x3cd1e88e	0.025623586
6	0xbcdf0a91	-0.027226718
7	0xbd05f747	-0.032706525
8	0xbd37c1cc	-0.044862553
9	0x3d0c0533	0.034184646
10	0xbdc10190	-0.09424126
11	0xbccecba7	-0.025243593
12	0xbd54fe32	-0.052000232
13	0x3de91642	0.113811985
14	0xba899f6d	-0.0010499783
15	0x3c6d05b2	0.01446669
16	0x3c51d8a5	0.012808
17	0xbd080849	-0.033211026
18	0x3d6f211b	0.05838118
19	0xbd9d6b82	-0.07686521
20	0x3d025076	0.031815015
21	0x3d9998af	0.07499825
22	0x3da9c3b9	0.08289284
23	0xbda3a14a	-0.07989748
24	0x399022a3	0.00027491627
25	0x39a5c9f6	0.00031621725
26	0xbd12a85d	-0.035805095
27	0x3d80a2ad	0.06281028
28	0x3dc48476	0.095955774
29	0xbc6b94b6	-0.014378717
30	0x3b35276e	0.002764191
31	0x3d79e056	0.06100496
32	0xbcf2a634	-0.029620267
33	0xbd8226e2	-0.063550726
34	0x39b1ec17	0.0003393597
35	0xbc09fb8b	-0.008421789
36	0xba416249	-0.00073770114
37	0x3c0692cf	0.008213713
38	0xbd27981a	-0.04091654
39	0xbd21bca2	-0.039486535
40	0xbd22e67d	-0.039770592
41	0xbc895b0b	-0.016767045
42	0x3d697699	0.05699787
43	0xbc8b62f7	-0.017014964
44	0xbd78819a	-0.060670473
45	0xba90d2e3	-0.0011049177
46	0x3d5e7581	0.05431128
47	0xbd8964e7	-0.06708699
48	0x3d9f68ee	0.077836856
49	0xbccfaa07	-0.02534963
50	0xbdb5e03e	-0.088806614
51	0x3cfb1fb4	0.030654766
52	0x3c9f913d	0.019478435
53	0x3cfc5fe9	0.030807452
54	0xbdbac934	-0.09120408
55	0x3cf1332a	0.029443342
56	0xbd42cc24	-0.047557965
57	0xbd4bd313	-0.049761843
58	0xbd815601	-0.06315232
59	0x3dceac4c	0.10091457
60	0xbc73b694	-0.014875073
61	0xbd82c824	-0.0638583
62	0x3c099095	0.008396287
63	0xbdbf6a9f	-0.09346508
64	0xbcda33a6	-0.026635956
65	0x3cae32f0	0.021264523
66	0xbd7aff25	-0.06127848
67	0x3cb69cd9	0.022291588
68	0xbd686b89	-0.05674318
69	0xbc6569d3	-0.014002281
70	0xbd60648c	-0.05478339
71	0xbdaa1fc2	-0.083068386
72	0x3d3c904c	0.04603605
73	0xbd8554ea	-0.06510337
74	0x3d57e165	0.052705187
75	0x3d870f1c	0.06594679
76	0xbc9cf5f7	-0.019160254
77	0xbd73789d	-0.059441198
78	0x3d797ecd	0.060911942
79	0xbda85df6	-0.082210466
80	0xbd7e2440	-0.06204629
81	0x3d8c4174	0.06848422
82	0x3d341931	0.043969337
83	0x3db969c9	0.0905338
84	0xbbe1c69d	-0.0068901316
85	0xbdd0407d	-0.1016855
86	0x3d1578b2	0.036492057
87	0xbca0d8f9	-0.01963471
88	0x3d9b01ef	0.07568728
89	0x3d9b7d61	0.075922735
90	0x3d083df9	0.033262227
91	0x3d92d3ba	0.0716929
92	0xbd218b15	-0.03943928
93	0x3d7c2179	0.06155536
94	0xbd9550ae	-0.07290779
95	0xbd8d0cf4	-0.06887236
96	0xbdb4f97a	-0.088366464
97	0xbdb7cd19	-0.08974666
98	0x3d8bd792	0.06828226
99	0xbafdb58d	-0.0019356475
100	0xbd04c8b2	-0.03241796
101	0xbdacd0c0	-0.084382534
102	0x3d36595a	0.044518806
103	0xbd2ef490	-0.0427137
104	0xbd841052	-0.06448425
105	0xbd91ec5f	-0.07125162
106	0x3cbf68e8	0.023365453
107	0xbd8d44c7	-0.06897884
108	0x3d4333ac	0.0476567
109	0xbb926c58	-0.004468482
110	0xbbe42871	-0.006962829
111	0xbda8620c	-0.08221826
112	0xbcf1399a	-0.029446412
113	0xbda72ccd	-0.08162842
114	0x3d10d006	0.035354637
115	0xbda5b95d	-0.08091996
116	0xbd1c3e49	-0.038145337
117	0x3d31585a	0.04329715
118	0x3d7acbae	0.0612294
119	0xbd813c5a	-0.06310339
120	0x3da62d88	0.08114153
121	0xbd295000	-0.04133606
122	0xba6f1a88	-0.000912108
123	0xbd84f6bf	-0.064923756
124	0x3cac5f0c	0.021041416
125	0xbc8c96ba	-0.017161716
126	0x3d95b9bb	0.07310816
127	0xbd88c4e6	-0.066781804
128	0xbdb755ee	-0.08951937
129	0x3d2ec5b0	0.042669
130	0x3d838985	0.06422714
131	0xbceec687	-0.0291474
132	0x3d107292	0.035265513
133	0xba820b3b	-0.000992156
134	0x3d8e42e3	0.069463514
135	0xbd61f574	-0.055165723
136	0x3c403e7b	0.0117336465
137	0x3d9978c7	0.074937396
138	0xbcb1159e	-0.021616753
139	0x3cc5e155	0.024155298
140	0x3d8bec2b	0.06832155
141	0x3d056909	0.032570872
142	0xbd62b336	-0.05534669
143	0xb9a31020	-0.00031101797
144	0xbd6a347e	-0.057178967
145	0x3d98f635	0.07468835
146	0x3dc0cc43	0.0941396
147	0x3aa861dd	0.0012846548
148	0x3ceb0ec7	0.02869357
149	0xbd5d5dcc	-0.05404453
150	0xbc101783	-0.008794668
151	0xbc0acd81	-0.0084718475
152	0x3c4ce169	0.012504914
153	0x3d901e7f	0.07037067
154	0x3d9a9d6c	0.07549557
155	0xbca1ef42	-0.019767407
156	0xbd837bd7	-0.06420105
157	0xbcdbf1fa	-0.026848782
158	0xbc095bdb	-0.008383716
159	0x3cefc15e	0.02926701
160	0xbc70c86f	-0.014696225
161	0xbd305fb1	-0.04306001
162	0x3d531f60	0.051543593
163	0xbd4c4172	-0.0498671
164	0x3d913dd8	0.07091874
165	0xbdc93381	-0.09824277
166	0xbc9e2a9f	-0.019307433
167	0x3c34df5a	0.011039579
168	0xbd75e1f1	-0.060029928
169	0xbd9c8679	-0.07642836
170	0xbd7d590f	-0.06185251
171	0xbd62bad6	-0.055353962
172	0x3a99b7f2	0.0011727794
173	0x3d1bc9c2	0.038034208
174	0x3a07ac81	0.00051755464
175	0x3d1623d1	0.03665525
176	0xbd4579ac	-0.04821174
177	0xbd1d735b	-0.03844009
178	0xbc404fbe	-0.011737762
179	0x3d2e012d	0.04248159
180	0xbd78f498	-0.060780138
181	0x3cbf482a	0.02334984
182	0x3d37ca15	0.044870455
183	0x3d3e4463	0.046451937
184	0x3d8705b8	0.06592888
185	0xbc5341e8	-0.012894131
186	0xbd89e13b	-0.067324124
187	0x3d9398d6	0.072068855
188	0xbd2a24e0	-0.041539073
189	0xbdbe0e0b	-0.09280022
190	0xbd95b73d	-0.073103406
191	0x3c7be094	0.015373368
192	0x3c7ec555	0.015549977
193	0x3d14559b	0.036214452
194	0xbca0d2b3	-0.01963172
195	0xbd862365	-0.0654972
196	0xbd4936e5	-0.049124617
197	0xbccaf5a2	-0.02477533
198	0x3cc11789	0.023570793
199	0xbbe940bc	-0.0071183126
200	0xbd6287c5	-0.05530526
201	0x3c5f23a3	0.013619336
202	0xbdb5ffd9	-0.0888669
203	0x3d817e55	0.06322924
204	0xbc90a56e	-0.017657008
205	0x3d803a0f	0.06261074
206	0xbc999e8d	-0.01875236
207	0xbc816c3f	-0.015798686
208	0xbd8952f0	-0.06705272
209	0xb93dab92	-0.0001808836
210	0xbd54f590	-0.051992
211	0xbcc02179	-0.023453461
212	0xbc792436	-0.015206387
213	0xbb54b906	-0.0032458915
214	0xbccdcfa9	-0.025123434
215	0xbd9dc687	-0.07703882
216	0x3d201e49	0.039091382
217	0xbd41409f	-0.047180768
218	0xbd9cce6b	-0.076565586
219	0xbdc1083f	-0.09425401
220	0x3d7a7996	0.06115111
221	0xbdc84e74	-0.09780589
222	0x3d926450	0.07148039
223	0xbd82344e	-0.063576326
224	0xbce668a8	-0.028126076
225	0xbcccf37e	-0.02501845
226	0xbd45ff9b	-0.048339467
227	0x3cfc2258	0.030778095
228	0xbc556089	-0.013023504
229	0xbd8dd6e2	-0.06925751
230	0xbda91756	-0.08256404
231	0x3d64df01	0.055876736
232	0xbc99329c	-0.01870089
233	0x3d292220	0.04129231
234	0xbd866534	-0.06562272
235	0xbd9282cb	-0.07153853
236	0x3c8cdf77	0.0171964
237	0xbd567596	-0.052358232
238	0x3c0cc60c	0.00859214
239	0x3d15191e	0.036400907
240	0xbd79de70	-0.06100315
241	0x3db7265d	0.08942864
242	0xbd2b4731	-0.04181594
243	0xbd915608	-0.07096487
244	0x3c8fb716	0.017543357
245	0xbb199f8a	-0.002344104
246	0x3dae6212	0.08514799
247	0xbd3a1f45	-0.045439977
248	0xbd98cfeb	-0.07461532
249	0xbd201d1f	-0.039090272
250	0x3da3e488	0.08002573
251	0x3d027b93	0.03185613
252	0xbd8a7426	-0.06760435
253	0x3db88652	0.090099946
254	0x3d82b956	0.06383006
255	0xbd3dbdca	-0.046323575

lstm.bias_ih_l1 f4 [512]
0	0xbb9740d0	-0.0046158805
1	0x3d006a3b	0.03135131
2	0xbdaac4bb	-0.083383046
3	0xbda1dc8c	-0.07903394
4	0xbccac4b0	-0.024751991
5	0xbd9b3c6d	-0.07579885
6	0xbc957b1c	-0.01824718
7	0x3db6f864	0.089340955
8	0x3cd7d587	0.026346935
9	0x3ceeeb39	0.029164897
10	0xbcc5e6f9	-0.024157988
11	0xbd05ffaa	-0.032714523
12	0xbd8ae131	-0.06781233
13	0x3cacd8a9	0.021099405
14	0xbcb22131	-0.021744343
15	0x3aa4dc0b	0.0012577785
16	0x3d41de57	0.04733118
17	0x3d5ab544	0.053395525
18	0xbc6dc955	-0.014513333
19	0xbc6bc8d9	-0.0143911475
20	0x3dbc1ff9	0.09185786
21	0xbcbee7e8	-0.02330394
22	0xbd875fdd	-0.06610081
23	0x3d12762a	0.03575722
24	0xbd801539	-0.06254048
25	0x3c8a468b	0.01687934
26	0xbc146846	-0.009058064
27	0x3d5ce110	0.053925574
28	0xbd51dce6	-0.051236056
29	0xbd74a867	-0.059730913
30	0xbc494c88	-0.012286313
31	0x3cd67991	0.026181014
32	0x3dbfbf0a	0.0936261
33	0xbd3baa57	-0.045816746
34	0xbd52da27	-0.051477578
35	0xbcedc1a0	-0.029022992
36	0xbd81c9bf	-0.06337308
37	0x3dc4f06e	0.09616171
38	0x3d7bcdc8	0.061475545
39	0xbc75e818	-0.015008949
40	0x3cf1719e	0.029473122
41	0xbd6fff22	-0.058592923
42	0x3c10ed2d	0.00884561
43	0xbcb4c263	-0.022065347
44	0xbdb8464f	-0.08997785
45	0x3d3b0fae	0.04566925
46	0x3d9fa11d	0.07794402
47	0x3da76759	0.08174009
48	0x3d8085ad	0.06275497
49	0xbcc7a91a	-0.024372626
50	0xbd93a23f	-0.0720868
51	0x3c9b1c9e	0.018934544
52	0xbc9fd9ff	-0.019513128
53	0xbccd7b2e	-0.02508315
54	0x3dc8bda4	0.09801796
55	0x3d481d3c	0.048856005
56	0xbd5e5a26	-0.05428519
57	0xbd278fa8	-0.040908486
58	0xbc9e9fea	-0.019363362
59	0xbc9a36da	-0.018824983
60	0xbdc88d22	-0.09792544
61	0xbd50439a	-0.05084572
62	0xbcf66b8d	-0.030080581
63	0x3cc24aad	0.023717249
64	0x3d4ca856	0.049965225
65	0x3d9b640f	0.07587444
66	0x3d89f80f	0.067367665
67	0xbcaa4055	-0.020782629
68	0xbda74898	-0.08168143
69	0xbda0b8f4	-0.07847777
70	0xbc9fc12f	-0.019501297
71	0xbdaf16a5	-0.08549241
72	0x3c53e153	0.012932139
73	0x3bed9d32	0.007251405
74	0xbda7fbe3	-0.082023405
75	0xbda9a3f3	-0.08283224
76	0x3d8cce03	0.06875231
77	0x3d51a19d	0.051179517
78	0x3c81a5ed	0.01582619
79	0x3d7c7509	0.06163505
80	0x3cbb4f0b	0.022864839
81	0x3bade3e3	0.005306707
82	0xbd060584	-0.032720104
83	0x3cf661ba	0.030075897
84	0xbd4da856	-0.050209366
85	0x3d213ebe	0.039366476
86	0xbd5127b0	-0.05106324
87	0x3d369dab	0.044583958
88	0xbd3ceb73	-0.04612298
89	0xbd435819	-0.04769144
90	0xbc9f4e96	-0.019446652
91	0xbd5e5ecc	-0.054289624
92	0xbbb95256	-0.005655567
93	0xbda59fa1	-0.080870874
94	0xbda85e5f	-0.08221125
95	0x3da3624d	0.07977734
96	0x3d3148fe	0.0432825
97	0x3d4d04da	0.050053455
98	0xbcd96724	-0.02653844
99	0xbcdeb32d	-0.027185047
100	0xbd8e66bf	-0.06953191
101	0xbda55294	-0.08072391
102	0x3c9fcbcc	0.019506358
103	0x3b68630c	0.0035459427
104	0xbda403b3	-0.08008518
105	0x3d976705	0.07392696
106	0xbca12b64	-0.01967401
107	0xbd539441	-0.051655058
108	0xbc85ff2c	-0.016357027
109	0xbd7dfd88	-0.062009364
110	0xbda9e46b	-0.082955204
111	0xbd01f8b5	-0.031731326
112	0x3d0ba082	0.03408862
113	0xbcdf3aae	-0.02724966
114	0xbdaec48c	-0.08533582
115	0x3c30a9fb	0.010782714
116	0x3cea89c1	0.02863014
117	0x3d0734e9	0.033009443
118	0x3d300629	0.042974625
119	0x3d1dad0d	0.038495112
120	0xbd720fe1	-0.059097175
121	0xbd8ebf7a	-0.06970115
122	0x3d8eb6e5	0.06968478
123	0xbd58af52	-0.052901573
124	0x3d282648	0.041052133
125	0x3cc933fe	0.024560925
126	0x3c8d08cf	0.017216114
127	0xbdaaf28d	-0.08347044
128	0xbc9b71f5	-0.018975237
129	0xbd63475d	-0.05548798
130	0xbd02eeab	-0.031965893
131	0x3d048de3	0.032361876
132	0xbc7fed68	-0.015620567
133	0xbd81daa7	-0.06340533
134	0xbc322526	-0.010873115
135	0xbd4fcbb0	-0.05073136
136	0x3d58cbcd	0.052928735
137	0x3cc4cc26	0.024023127
138	0x3c85f416	0.01635174
139	0xbcef9c62	-0.029249374
140	0x3d5c4cc9	0.053784166
141	0x3dc55ec0	0.09637213
142	0x3c3aaf04	0.011394266
143	0x3d0e9bb6	0.034816466
144	0x3d31426e	0.043276243
145	0x3d37e233	0.044893455
146	0xbc8eca98	-0.017430589
147	0x3d37646b	0.0447735
148	0x3c48f772	0.012266027
149	0xbc4e853f	-0.0126050105
150	0xbdbcb3ab	-0.092139564
151	0xbc052e6e	-0.0081287455
152	0xbda6a3b2	-0.08136691
153	0xbd93aec2	-0.07211067
154	0xbc7e67dc	-0.015527692
155	0xbb081fc2	-0.0020770882
156	0x3d166e95	0.036726553
157	0xbd89175f	-0.06693911
158	0x3c2b48af	0.010454341
159	0x3b0150f1	0.0019732083
160	0xbcce9a67	-0.02522011
161	0x3dbfbc96	0.09362142
162	0xbb00ca10	-0.0019651689
163	0x3d85aff3	0.065277
164	0x3d49e159	0.049287174
165	0x3dab8696	0.083752796
166	0xbbe24644	-0.006905349
167	0x3da3a4e6	0.07990436
168	0xbc97cc61	-0.018530073
169	0x3d9a201a	0.07525654
170	0x3db6ba19	0.08922214
171	0x3d044c62	0.032299407
172	0xbd91be3a	-0.07116361
173	0x3ce59d84	0.02802921
174	0x3da606c0	0.08106756
175	0x3bdbb9e8	0.0067055114
176	0x3ce52e25	0.027976105
177	0x3d922496	0.071358845
178	0x3d1898b6	0.03725501
179	0x3db65c96	0.08904378
180	0xbd96852c	-0.07349619
181	0x3db37570	0.08762634
182	0xbd960c2e	-0.07326542
183	0x3d14fb81	0.036372665
184	0xbd8ff838	-0.07029766
185	0xbd99576b	-0.07487377
186	0xbd5f6ffa	-0.05455015
187	0xbd146379	-0.036227677
188	0xbcd11b04	-0.025525577
189	0x3d474206	0.04864695
190	0xbd944a3a	-0.0724072
191	0xbccd34de	-0.025049623
192	0x3da995a9	0.082804985
193	0x3cf1b9ba	0.029507507
194	0xbca3865e	-0.019961532
195	0xbcec7020	-0.02886206
196	0xbc895580	-0.016764402
197	0x3bca9584	0.0061823744
198	0x3c253dd2	0.01008554
199	0xbdaaf586	-0.08347611
200	0xbc71f562	-0.0147679765
201	0x3dacf4ea	0.08445151
202	0x3d514b76	0.051097356
203	0xbdb3b2bf	-0.087743275
204	0xbd1bd4e0	-0.03804481
205	0xbb9f3c26	-0.004859465
206	0xbc034643	-0.008012357
207	0x3cbd7e2f	0.023131458
208	0xbd8cf10b	-0.06881913
209	0xbb1304e4	-0.0022433335
210	0x3ba954eb	0.0051675937
211	0xbc69e068	-0.014274694
212	0xbd350e75	-0.04420324
213	0x3d4a5ea9	0.04940668
214	0x3db4f846	0.08836417
215	0xbd4e3012	-0.050338812
216	0x3d4f3dd9	0.050596092
217	0x3d9d1bb3	0.07671299
218	0x3d93e879	0.07222075
219	0xbc763272	-0.015026676
220	0x3db4d947	0.08830505
221	0x3cba9ef0	0.022780865
222	0xbc65fb47	-0.01403696
223	0x3d7f857b	0.062383156
224	0x3d66c513	0.05634029
225	0xbcc68dc4	-0.024237521
226	0x3d8c7d48	0.06859833
227	0x3c80823a	0.015687097
228	0xbd638ac6	-0.055552267
229	0x3bda292d	0.0066577406
230	0x3d3a8701	0.045538906
231	0xbd952243	-0.072819255
232	0xbc6392d7	-0.01388999
233	0xbd8afd29	-0.06786568
234	0x3d2cef50	0.042220414
235	0x3d53c625	0.051702637
236	0xbd2ecaa1	-0.04267371
237	0x3bdefcb2	0.006805026
238	0xbd5cd361	-0.053912524
239	0x3c1ae697	0.009454391
240	0x3d5af359	0.05345473
241	0x3d99c108	0.07507521
242	0x3cb0a2ce	0.021562006
243	0x3cf42032	0.029800508
244	0xbcaa9842	-0.020824555
245	0xbd3b7bdc	-0.04577242
246	0x3d932b9d	0.07186053
247	0x3cccf20f	0.025017766
248	0xbcdd1252	-0.026986275
249	0xbc6098bd	-0.013708291
250	0xbb32a70c	-0.0027260212
251	0x3d5baa7f	0.053629395
252	0xbd2cc701	-0.042181972
253	0xbdb0bba5	-0.0862954
254	0x3c3d0445	0.0115366625
255	0x3c59f583	0.013303163
